…
    accuracy                         0.6054       185
   macro avg     0.5828    0.6043    0.5814       185
weighted avg     0.6278    0.6054    0.6056       185

micro f-score: 0.6054054054054054

Finished training!!!

Min Loss = 0.022 in epoch 45;
Max Accuracy = 62.16% in epoch 36;
Total Cost 48 minutes

==========================================================================================
Layer (type:depth-idx)                   Output Shape              Param #
==========================================================================================
Sequential: 1-1                        [-1, 256, 9, 9]           --
|    Conv2d: 2-1                       [-1, 64, 79, 79]          23,296
|    ReLU: 2-2                         [-1, 64, 79, 79]          --
|    MaxPool2d: 2-3                    [-1, 64, 39, 39]          --
|    Conv2d: 2-4                       [-1, 192, 39, 39]         307,392
|    ReLU: 2-5                         [-1, 192, 39, 39]         --
|    MaxPool2d: 2-6                    [-1, 192, 19, 19]         --
|    Conv2d: 2-7                       [-1, 384, 19, 19]         663,936
|    ReLU: 2-8                         [-1, 384, 19, 19]         --
|    Conv2d: 2-9                       [-1, 256, 19, 19]         884,992
|    ReLU: 2-10                        [-1, 256, 19, 19]         --
|    Conv2d: 2-11                      [-1, 256, 19, 19]         590,080
|    ReLU: 2-12                        [-1, 256, 19, 19]         --
|    MaxPool2d: 2-13                   [-1, 256, 9, 9]           --
AdaptiveAvgPool2d: 1-2                 [-1, 256, 6, 6]           --
Sequential: 1-3                        [-1, 7]                   --
|    Dropout: 2-14                     [-1, 9216]                --
|    Linear: 2-15                      [-1, 4096]                37,752,832
|    ReLU: 2-16                        [-1, 4096]                --
|    Dropout: 2-17                     [-1, 4096]                --
|    Linear: 2-18                      [-1, 4096]                16,781,312
|    ReLU: 2-19                        [-1, 4096]                --
|    Linear: 2-20                      [-1, 7]                   28,679
==========================================================================================
Total params: 57,032,519
Trainable params: 57,032,519
Non-trainable params: 0
Total mult-adds (G): 1.50
==========================================================================================
Input size (MB): 1.17
Forward/backward pass size (MB): 7.81
Params size (MB): 217.56
Estimated Total Size (MB): 226.54
…
