…
    accuracy                         0.6757       185
   macro avg     0.6775    0.6552    0.6585       185
weighted avg     0.6922    0.6757    0.6782       185

micro f-score: 0.6756756756756757

Finished training!!!

Min Loss = 0.058 in epoch 62;
Max Accuracy = 67.57% in epoch 63;
Total Cost 48 minutes

==========================================================================================
Layer (type:depth-idx)                   Output Shape              Param #
==========================================================================================
├─Sequential: 1-1                        [-1, 256, 9, 9]           --
|    └─Conv2d: 2-1                       [-1, 64, 81, 81]          1,792
|    └─BatchNorm2d: 2-2                  [-1, 64, 81, 81]          128
|    └─ReLU: 2-3                         [-1, 64, 81, 81]          --
|    └─MaxPool2d: 2-4                    [-1, 64, 40, 40]          --
|    └─Conv2d: 2-5                       [-1, 192, 40, 40]         307,392
|    └─BatchNorm2d: 2-6                  [-1, 192, 40, 40]         384
|    └─ReLU: 2-7                         [-1, 192, 40, 40]         --
|    └─MaxPool2d: 2-8                    [-1, 192, 19, 19]         --
|    └─Conv2d: 2-9                       [-1, 384, 19, 19]         663,936
|    └─BatchNorm2d: 2-10                 [-1, 384, 19, 19]         768
|    └─ReLU: 2-11                        [-1, 384, 19, 19]         --
|    └─Conv2d: 2-12                      [-1, 256, 19, 19]         884,992
|    └─BatchNorm2d: 2-13                 [-1, 256, 19, 19]         512
|    └─ReLU: 2-14                        [-1, 256, 19, 19]         --
|    └─Conv2d: 2-15                      [-1, 256, 19, 19]         590,080
|    └─BatchNorm2d: 2-16                 [-1, 256, 19, 19]         512
|    └─ReLU: 2-17                        [-1, 256, 19, 19]         --
|    └─MaxPool2d: 2-18                   [-1, 256, 9, 9]           --
├─AdaptiveAvgPool2d: 1-2                 [-1, 256, 3, 3]           --
├─Sequential: 1-3                        [-1, 7]                   --
|    └─Dropout: 2-19                     [-1, 2304]                --
|    └─Linear: 2-20                      [-1, 4096]                9,441,280
|    └─ReLU: 2-21                        [-1, 4096]                --
|    └─Dropout: 2-22                     [-1, 4096]                --
|    └─Linear: 2-23                      [-1, 4096]                16,781,312
|    └─ReLU: 2-24                        [-1, 4096]                --
|    └─Linear: 2-25                      [-1, 7]                   28,679
==========================================================================================
Total params: 28,701,767
Trainable params: 28,701,767
Non-trainable params: 0
Total mult-adds (G): 1.33
==========================================================================================
Input size (MB): 1.17
Forward/backward pass size (MB): 16.09
Params size (MB): 109.49
Estimated Total Size (MB): 126.75
…
