…
    accuracy                         0.7367       923
   macro avg     0.7701    0.7205    0.7158       923
weighted avg     0.8026    0.7367    0.7430       923

micro f-score: 0.7367280606717227

Finished training!!!

Min Loss = 0.298 in epoch 149;
Max Accuracy = 83.42% in epoch 143;
Total Cost 648 minutes

===============================================================================================
Layer (type:depth-idx)                        Output Shape              Param #
===============================================================================================
Conv2d: 1-1                                 [-1, 64, 160, 160]        9,408
BatchNorm2d: 1-2                            [-1, 64, 160, 160]        128
ReLU: 1-3                                   [-1, 64, 160, 160]        --
SPP: 1-4                                    [-1, 64, 160, 160]        --
|    Conv: 2-1                              [-1, 32, 160, 160]        --
|    |    Conv2d: 3-1                       [-1, 32, 160, 160]        2,048
|    |    BatchNorm2d: 3-2                  [-1, 32, 160, 160]        64
|    |    ReLU: 3-3                         [-1, 32, 160, 160]        --
|    ModuleList: 2                          []                        --
|    |    MaxPool2d: 3-4                    [-1, 32, 160, 160]        --
|    |    MaxPool2d: 3-5                    [-1, 32, 160, 160]        --
|    |    MaxPool2d: 3-6                    [-1, 32, 160, 160]        --
|    Conv: 2-2                              [-1, 64, 160, 160]        --
|    |    Conv2d: 3-7                       [-1, 64, 160, 160]        8,192
|    |    BatchNorm2d: 3-8                  [-1, 64, 160, 160]        128
|    |    ReLU: 3-9                         [-1, 64, 160, 160]        --
Sequential: 1-5                             [-1, 64, 160, 160]        --
|    BasicBlock: 2-3                        [-1, 64, 160, 160]        --
|    |    Conv2d: 3-10                      [-1, 64, 160, 160]        36,864
|    |    BatchNorm2d: 3-11                 [-1, 64, 160, 160]        128
|    |    ReLU: 3-12                        [-1, 64, 160, 160]        --
|    |    Conv2d: 3-13                      [-1, 64, 160, 160]        36,864
|    |    BatchNorm2d: 3-14                 [-1, 64, 160, 160]        128
|    |    HCAM1: 3-15                       [-1, 64, 160, 160]        3,376
|    |    ReLU: 3-16                        [-1, 64, 160, 160]        --
|    BasicBlock: 2-4                        [-1, 64, 160, 160]        --
|    |    Conv2d: 3-17                      [-1, 64, 160, 160]        36,864
|    |    BatchNorm2d: 3-18                 [-1, 64, 160, 160]        128
|    |    ReLU: 3-19                        [-1, 64, 160, 160]        --
|    |    Conv2d: 3-20                      [-1, 64, 160, 160]        36,864
|    |    BatchNorm2d: 3-21                 [-1, 64, 160, 160]        128
|    |    HCAM1: 3-22                       [-1, 64, 160, 160]        3,376
|    |    ReLU: 3-23                        [-1, 64, 160, 160]        --
Sequential: 1-6                             [-1, 128, 80, 80]         --
|    BasicBlock: 2-5                        [-1, 128, 80, 80]         --
|    |    Conv2d: 3-24                      [-1, 128, 80, 80]         73,728
|    |    BatchNorm2d: 3-25                 [-1, 128, 80, 80]         256
|    |    ReLU: 3-26                        [-1, 128, 80, 80]         --
|    |    Conv2d: 3-27                      [-1, 128, 80, 80]         147,456
|    |    BatchNorm2d: 3-28                 [-1, 128, 80, 80]         256
|    |    HCAM1: 3-29                       [-1, 128, 80, 80]         6,704
|    |    Sequential: 3-30                  [-1, 128, 80, 80]         8,448
|    |    ReLU: 3-31                        [-1, 128, 80, 80]         --
|    BasicBlock: 2-6                        [-1, 128, 80, 80]         --
|    |    Conv2d: 3-32                      [-1, 128, 80, 80]         147,456
|    |    BatchNorm2d: 3-33                 [-1, 128, 80, 80]         256
|    |    ReLU: 3-34                        [-1, 128, 80, 80]         --
|    |    Conv2d: 3-35                      [-1, 128, 80, 80]         147,456
|    |    BatchNorm2d: 3-36                 [-1, 128, 80, 80]         256
|    |    HCAM1: 3-37                       [-1, 128, 80, 80]         6,704
|    |    ReLU: 3-38                        [-1, 128, 80, 80]         --
Sequential: 1-7                             [-1, 256, 40, 40]         --
|    BasicBlock: 2-7                        [-1, 256, 40, 40]         --
|    |    Conv2d: 3-39                      [-1, 256, 40, 40]         294,912
|    |    BatchNorm2d: 3-40                 [-1, 256, 40, 40]         512
|    |    ReLU: 3-41                        [-1, 256, 40, 40]         --
|    |    Conv2d: 3-42                      [-1, 256, 40, 40]         589,824
|    |    BatchNorm2d: 3-43                 [-1, 256, 40, 40]         512
|    |    HCAM1: 3-44                       [-1, 256, 40, 40]         13,360
|    |    Sequential: 3-45                  [-1, 256, 40, 40]         33,280
|    |    ReLU: 3-46                        [-1, 256, 40, 40]         --
|    BasicBlock: 2-8                        [-1, 256, 40, 40]         --
|    |    Conv2d: 3-47                      [-1, 256, 40, 40]         589,824
|    |    BatchNorm2d: 3-48                 [-1, 256, 40, 40]         512
|    |    ReLU: 3-49                        [-1, 256, 40, 40]         --
|    |    Conv2d: 3-50                      [-1, 256, 40, 40]         589,824
|    |    BatchNorm2d: 3-51                 [-1, 256, 40, 40]         512
|    |    HCAM1: 3-52                       [-1, 256, 40, 40]         13,360
|    |    ReLU: 3-53                        [-1, 256, 40, 40]         --
Sequential: 1-8                             [-1, 512, 20, 20]         --
|    BasicBlock: 2-9                        [-1, 512, 20, 20]         --
|    |    Conv2d: 3-54                      [-1, 512, 20, 20]         1,179,648
|    |    BatchNorm2d: 3-55                 [-1, 512, 20, 20]         1,024
|    |    ReLU: 3-56                        [-1, 512, 20, 20]         --
|    |    Conv2d: 3-57                      [-1, 512, 20, 20]         2,359,296
|    |    BatchNorm2d: 3-58                 [-1, 512, 20, 20]         1,024
|    |    HCAM1: 3-59                       [-1, 512, 20, 20]         51,296
|    |    Sequential: 3-60                  [-1, 512, 20, 20]         132,096
|    |    ReLU: 3-61                        [-1, 512, 20, 20]         --
|    BasicBlock: 2-10                       [-1, 512, 20, 20]         --
|    |    Conv2d: 3-62                      [-1, 512, 20, 20]         2,359,296
|    |    BatchNorm2d: 3-63                 [-1, 512, 20, 20]         1,024
|    |    ReLU: 3-64                        [-1, 512, 20, 20]         --
|    |    Conv2d: 3-65                      [-1, 512, 20, 20]         2,359,296
|    |    BatchNorm2d: 3-66                 [-1, 512, 20, 20]         1,024
|    |    HCAM1: 3-67                       [-1, 512, 20, 20]         51,296
|    |    ReLU: 3-68                        [-1, 512, 20, 20]         --
AdaptiveAvgPool2d: 1-9                      [-1, 512, 1, 1]           --
Linear: 1-10                                [-1, 7]                   3,591
===============================================================================================
Total params: 11,340,007
Trainable params: 11,340,007
Non-trainable params: 0
Total mult-adds (G): 14.37
===============================================================================================
Input size (MB): 1.17
Forward/backward pass size (MB): 274.69
Params size (MB): 43.26
Estimated Total Size (MB): 319.12
…
