…
    accuracy                         0.5622       185
   macro avg     0.5471    0.5563    0.5382       185
weighted avg     0.5976    0.5622    0.5694       185

micro f-score: 0.5621621621621622

Finished training!!!

Min Loss = 0.062 in epoch 52;
Max Accuracy = 63.24% in epoch 21;
Total Cost 48 minutes

==========================================================================================
Layer (type:depth-idx)                   Output Shape              Param #
==========================================================================================
Sequential: 1-1                        [-1, 256, 9, 9]           --
|    Conv2d: 2-1                       [-1, 64, 80, 80]          4,864
|    BatchNorm2d: 2-2                  [-1, 64, 80, 80]          128
|    ReLU: 2-3                         [-1, 64, 80, 80]          --
|    MaxPool2d: 2-4                    [-1, 64, 39, 39]          --
|    Conv2d: 2-5                       [-1, 192, 39, 39]         307,392
|    BatchNorm2d: 2-6                  [-1, 192, 39, 39]         384
|    ReLU: 2-7                         [-1, 192, 39, 39]         --
|    MaxPool2d: 2-8                    [-1, 192, 19, 19]         --
|    Conv2d: 2-9                       [-1, 384, 19, 19]         663,936
|    BatchNorm2d: 2-10                 [-1, 384, 19, 19]         768
|    ReLU: 2-11                        [-1, 384, 19, 19]         --
|    Conv2d: 2-12                      [-1, 256, 19, 19]         884,992
|    BatchNorm2d: 2-13                 [-1, 256, 19, 19]         512
|    ReLU: 2-14                        [-1, 256, 19, 19]         --
|    Conv2d: 2-15                      [-1, 256, 19, 19]         590,080
|    BatchNorm2d: 2-16                 [-1, 256, 19, 19]         512
|    ReLU: 2-17                        [-1, 256, 19, 19]         --
|    MaxPool2d: 2-18                   [-1, 256, 9, 9]           --
AdaptiveAvgPool2d: 1-2                 [-1, 256, 3, 3]           --
Sequential: 1-3                        [-1, 7]                   --
|    Dropout: 2-19                     [-1, 2304]                --
|    Linear: 2-20                      [-1, 4096]                9,441,280
|    ReLU: 2-21                        [-1, 4096]                --
|    Dropout: 2-22                     [-1, 4096]                --
|    Linear: 2-23                      [-1, 4096]                16,781,312
|    ReLU: 2-24                        [-1, 4096]                --
|    Linear: 2-25                      [-1, 7]                   28,679
==========================================================================================
Total params: 28,704,839
Trainable params: 28,704,839
Non-trainable params: 0
Total mult-adds (G): 1.32
==========================================================================================
Input size (MB): 1.17
Forward/backward pass size (MB): 15.70
Params size (MB): 109.50
Estimated Total Size (MB): 126.38
…
