…
Accuracy for class mtx   is: 100.0 %
Accuracy for class nqx   is: 0.0 %
Accuracy for class qtx   is: 0.0 %
Accuracy for class zxx   is: 0.0 %

========== Train Epoch 64 ==========
Loss: 1.872	Accuracy: 16 %	Time 183 s
Accuracy for class bzx   is: 0.0 %
Accuracy for class cwx   is: 0.0 %
Accuracy for class hdx   is: 0.0 %
Accuracy for class mtx   is: 100.0 %
Accuracy for class nqx   is: 0.0 %
Accuracy for class qtx   is: 0.0 %
Accuracy for class zxx   is: 0.0 %
Finished training!!!

Min loss = 41.734 in epoch 0, max Accuracy = 20.60% in epoch 0

MobileNetV3(
  (features): Sequential(
    (0): ConvNormActivation(
      (0): Conv2d(3, 16, kernel_size=(3, 3), stride=(2, 2), padding=(1, 1), bias=False)
      (1): BatchNorm2d(16, eps=0.001, momentum=0.01, affine=True, track_running_stats=True)
      (2): Hardswish()
    )
    (1): InvertedResidual(
      (block): Sequential(
        (0): ConvNormActivation(
          (0): Conv2d(16, 16, kernel_size=(3, 3), stride=(1, 1), padding=(1, 1), groups=16, bias=False)
          (1): BatchNorm2d(16, eps=0.001, momentum=0.01, affine=True, track_running_stats=True)
          (2): ReLU(inplace=True)
        )
        (1): ConvNormActivation(
          (0): Conv2d(16, 16, kernel_size=(1, 1), stride=(1, 1), bias=False)
          (1): BatchNorm2d(16, eps=0.001, momentum=0.01, affine=True, track_running_stats=True)
        )
      )
    )
    (2): InvertedResidual(
      (block): Sequential(
        (0): ConvNormActivation(
          (0): Conv2d(16, 64, kernel_size=(1, 1), stride=(1, 1), bias=False)
          (1): BatchNorm2d(64, eps=0.001, momentum=0.01, affine=True, track_running_stats=True)
          (2): ReLU(inplace=True)
        )
        (1): ConvNormActivation(
          (0): Conv2d(64, 64, kernel_size=(3, 3), stride=(2, 2), padding=(1, 1), groups=64, bias=False)
          (1): BatchNorm2d(64, eps=0.001, momentum=0.01, affine=True, track_running_stats=True)
          (2): ReLU(inplace=True)
        )
        (2): ConvNormActivation(
          (0): Conv2d(64, 24, kernel_size=(1, 1), stride=(1, 1), bias=False)
          (1): BatchNorm2d(24, eps=0.001, momentum=0.01, affine=True, track_running_stats=True)
        )
      )
    )
    (3): InvertedResidual(
      (block): Sequential(
        (0): ConvNormActivation(
          (0): Conv2d(24, 72, kernel_size=(1, 1), stride=(1, 1), bias=False)
          (1): BatchNorm2d(72, eps=0.001, momentum=0.01, affine=True, track_running_stats=True)
          (2): ReLU(inplace=True)
        )
        (1): ConvNormActivation(
          (0): Conv2d(72, 72, kernel_size=(3, 3), stride=(1, 1), padding=(1, 1), groups=72, bias=False)
          (1): BatchNorm2d(72, eps=0.001, momentum=0.01, affine=True, track_running_stats=True)
          (2): ReLU(inplace=True)
        )
        (2): ConvNormActivation(
          (0): Conv2d(72, 24, kernel_size=(1, 1), stride=(1, 1), bias=False)
          (1): BatchNorm2d(24, eps=0.001, momentum=0.01, affine=True, track_running_stats=True)
        )
      )
    )
    (4): InvertedResidual(
      (block): Sequential(
        (0): ConvNormActivation(
          (0): Conv2d(24, 72, kernel_size=(1, 1), stride=(1, 1), bias=False)
          (1): BatchNorm2d(72, eps=0.001, momentum=0.01, affine=True, track_running_stats=True)
          (2): ReLU(inplace=True)
        )
        (1): ConvNormActivation(
          (0): Conv2d(72, 72, kernel_size=(5, 5), stride=(2, 2), padding=(2, 2), groups=72, bias=False)
          (1): BatchNorm2d(72, eps=0.001, momentum=0.01, affine=True, track_running_stats=True)
          (2): ReLU(inplace=True)
        )
        (2): SqueezeExcitation(
          (avgpool): AdaptiveAvgPool2d(output_size=1)
          (fc1): Conv2d(72, 24, kernel_size=(1, 1), stride=(1, 1))
          (fc2): Conv2d(24, 72, kernel_size=(1, 1), stride=(1, 1))
          (activation): ReLU()
          (scale_activation): Hardsigmoid()
        )
        (3): ConvNormActivation(
          (0): Conv2d(72, 40, kernel_size=(1, 1), stride=(1, 1), bias=False)
          (1): BatchNorm2d(40, eps=0.001, momentum=0.01, affine=True, track_running_stats=True)
        )
      )
    )
    (5): InvertedResidual(
      (block): Sequential(
        (0): ConvNormActivation(
          (0): Conv2d(40, 120, kernel_size=(1, 1), stride=(1, 1), bias=False)
          (1): BatchNorm2d(120, eps=0.001, momentum=0.01, affine=True, track_running_stats=True)
          (2): ReLU(inplace=True)
        )
        (1): ConvNormActivation(
          (0): Conv2d(120, 120, kernel_size=(5, 5), stride=(1, 1), padding=(2, 2), groups=120, bias=False)
          (1): BatchNorm2d(120, eps=0.001, momentum=0.01, affine=True, track_running_stats=True)
          (2): ReLU(inplace=True)
        )
        (2): SqueezeExcitation(
          (avgpool): AdaptiveAvgPool2d(output_size=1)
          (fc1): Conv2d(120, 32, kernel_size=(1, 1), stride=(1, 1))
          (fc2): Conv2d(32, 120, kernel_size=(1, 1), stride=(1, 1))
          (activation): ReLU()
          (scale_activation): Hardsigmoid()
        )
        (3): ConvNormActivation(
          (0): Conv2d(120, 40, kernel_size=(1, 1), stride=(1, 1), bias=False)
          (1): BatchNorm2d(40, eps=0.001, momentum=0.01, affine=True, track_running_stats=True)
        )
      )
    )
    (6): InvertedResidual(
      (block): Sequential(
        (0): ConvNormActivation(
          (0): Conv2d(40, 120, kernel_size=(1, 1), stride=(1, 1), bias=False)
          (1): BatchNorm2d(120, eps=0.001, momentum=0.01, affine=True, track_running_stats=True)
          (2): ReLU(inplace=True)
        )
        (1): ConvNormActivation(
          (0): Conv2d(120, 120, kernel_size=(5, 5), stride=(1, 1), padding=(2, 2), groups=120, bias=False)
          (1): BatchNorm2d(120, eps=0.001, momentum=0.01, affine=True, track_running_stats=True)
          (2): ReLU(inplace=True)
        )
        (2): SqueezeExcitation(
          (avgpool): AdaptiveAvgPool2d(output_size=1)
          (fc1): Conv2d(120, 32, kernel_size=(1, 1), stride=(1, 1))
          (fc2): Conv2d(32, 120, kernel_size=(1, 1), stride=(1, 1))
          (activation): ReLU()
          (scale_activation): Hardsigmoid()
        )
        (3): ConvNormActivation(
          (0): Conv2d(120, 40, kernel_size=(1, 1), stride=(1, 1), bias=False)
          (1): BatchNorm2d(40, eps=0.001, momentum=0.01, affine=True, track_running_stats=True)
        )
      )
    )
    (7): InvertedResidual(
      (block): Sequential(
        (0): ConvNormActivation(
          (0): Conv2d(40, 240, kernel_size=(1, 1), stride=(1, 1), bias=False)
          (1): BatchNorm2d(240, eps=0.001, momentum=0.01, affine=True, track_running_stats=True)
          (2): Hardswish()
        )
        (1): ConvNormActivation(
          (0): Conv2d(240, 240, kernel_size=(3, 3), stride=(2, 2), padding=(1, 1), groups=240, bias=False)
          (1): BatchNorm2d(240, eps=0.001, momentum=0.01, affine=True, track_running_stats=True)
          (2): Hardswish()
        )
        (2): ConvNormActivation(
          (0): Conv2d(240, 80, kernel_size=(1, 1), stride=(1, 1), bias=False)
          (1): BatchNorm2d(80, eps=0.001, momentum=0.01, affine=True, track_running_stats=True)
        )
      )
    )
    (8): InvertedResidual(
      (block): Sequential(
        (0): ConvNormActivation(
          (0): Conv2d(80, 200, kernel_size=(1, 1), stride=(1, 1), bias=False)
          (1): BatchNorm2d(200, eps=0.001, momentum=0.01, affine=True, track_running_stats=True)
          (2): Hardswish()
        )
        (1): ConvNormActivation(
          (0): Conv2d(200, 200, kernel_size=(3, 3), stride=(1, 1), padding=(1, 1), groups=200, bias=False)
          (1): BatchNorm2d(200, eps=0.001, momentum=0.01, affine=True, track_running_stats=True)
          (2): Hardswish()
        )
        (2): ConvNormActivation(
          (0): Conv2d(200, 80, kernel_size=(1, 1), stride=(1, 1), bias=False)
          (1): BatchNorm2d(80, eps=0.001, momentum=0.01, affine=True, track_running_stats=True)
        )
      )
    )
    (9): InvertedResidual(
      (block): Sequential(
        (0): ConvNormActivation(
          (0): Conv2d(80, 184, kernel_size=(1, 1), stride=(1, 1), bias=False)
          (1): BatchNorm2d(184, eps=0.001, momentum=0.01, affine=True, track_running_stats=True)
          (2): Hardswish()
        )
        (1): ConvNormActivation(
          (0): Conv2d(184, 184, kernel_size=(3, 3), stride=(1, 1), padding=(1, 1), groups=184, bias=False)
          (1): BatchNorm2d(184, eps=0.001, momentum=0.01, affine=True, track_running_stats=True)
          (2): Hardswish()
        )
        (2): ConvNormActivation(
          (0): Conv2d(184, 80, kernel_size=(1, 1), stride=(1, 1), bias=False)
          (1): BatchNorm2d(80, eps=0.001, momentum=0.01, affine=True, track_running_stats=True)
        )
      )
    )
    (10): InvertedResidual(
      (block): Sequential(
        (0): ConvNormActivation(
          (0): Conv2d(80, 184, kernel_size=(1, 1), stride=(1, 1), bias=False)
          (1): BatchNorm2d(184, eps=0.001, momentum=0.01, affine=True, track_running_stats=True)
          (2): Hardswish()
        )
        (1): ConvNormActivation(
          (0): Conv2d(184, 184, kernel_size=(3, 3), stride=(1, 1), padding=(1, 1), groups=184, bias=False)
          (1): BatchNorm2d(184, eps=0.001, momentum=0.01, affine=True, track_running_stats=True)
          (2): Hardswish()
        )
        (2): ConvNormActivation(
          (0): Conv2d(184, 80, kernel_size=(1, 1), stride=(1, 1), bias=False)
          (1): BatchNorm2d(80, eps=0.001, momentum=0.01, affine=True, track_running_stats=True)
        )
      )
    )
    (11): InvertedResidual(
      (block): Sequential(
        (0): ConvNormActivation(
          (0): Conv2d(80, 480, kernel_size=(1, 1), stride=(1, 1), bias=False)
          (1): BatchNorm2d(480, eps=0.001, momentum=0.01, affine=True, track_running_stats=True)
          (2): Hardswish()
        )
        (1): ConvNormActivation(
          (0): Conv2d(480, 480, kernel_size=(3, 3), stride=(1, 1), padding=(1, 1), groups=480, bias=False)
          (1): BatchNorm2d(480, eps=0.001, momentum=0.01, affine=True, track_running_stats=True)
          (2): Hardswish()
        )
        (2): SqueezeExcitation(
          (avgpool): AdaptiveAvgPool2d(output_size=1)
          (fc1): Conv2d(480, 120, kernel_size=(1, 1), stride=(1, 1))
          (fc2): Conv2d(120, 480, kernel_size=(1, 1), stride=(1, 1))
          (activation): ReLU()
          (scale_activation): Hardsigmoid()
        )
        (3): ConvNormActivation(
          (0): Conv2d(480, 112, kernel_size=(1, 1), stride=(1, 1), bias=False)
          (1): BatchNorm2d(112, eps=0.001, momentum=0.01, affine=True, track_running_stats=True)
        )
      )
    )
    (12): InvertedResidual(
      (block): Sequential(
        (0): ConvNormActivation(
          (0): Conv2d(112, 672, kernel_size=(1, 1), stride=(1, 1), bias=False)
          (1): BatchNorm2d(672, eps=0.001, momentum=0.01, affine=True, track_running_stats=True)
          (2): Hardswish()
        )
        (1): ConvNormActivation(
          (0): Conv2d(672, 672, kernel_size=(3, 3), stride=(1, 1), padding=(1, 1), groups=672, bias=False)
          (1): BatchNorm2d(672, eps=0.001, momentum=0.01, affine=True, track_running_stats=True)
          (2): Hardswish()
        )
        (2): SqueezeExcitation(
          (avgpool): AdaptiveAvgPool2d(output_size=1)
          (fc1): Conv2d(672, 168, kernel_size=(1, 1), stride=(1, 1))
          (fc2): Conv2d(168, 672, kernel_size=(1, 1), stride=(1, 1))
          (activation): ReLU()
          (scale_activation): Hardsigmoid()
        )
        (3): ConvNormActivation(
          (0): Conv2d(672, 112, kernel_size=(1, 1), stride=(1, 1), bias=False)
          (1): BatchNorm2d(112, eps=0.001, momentum=0.01, affine=True, track_running_stats=True)
        )
      )
    )
    (13): InvertedResidual(
      (block): Sequential(
        (0): ConvNormActivation(
          (0): Conv2d(112, 672, kernel_size=(1, 1), stride=(1, 1), bias=False)
          (1): BatchNorm2d(672, eps=0.001, momentum=0.01, affine=True, track_running_stats=True)
          (2): Hardswish()
        )
        (1): ConvNormActivation(
          (0): Conv2d(672, 672, kernel_size=(5, 5), stride=(2, 2), padding=(2, 2), groups=672, bias=False)
          (1): BatchNorm2d(672, eps=0.001, momentum=0.01, affine=True, track_running_stats=True)
          (2): Hardswish()
        )
        (2): SqueezeExcitation(
          (avgpool): AdaptiveAvgPool2d(output_size=1)
          (fc1): Conv2d(672, 168, kernel_size=(1, 1), stride=(1, 1))
          (fc2): Conv2d(168, 672, kernel_size=(1, 1), stride=(1, 1))
          (activation): ReLU()
          (scale_activation): Hardsigmoid()
        )
        (3): ConvNormActivation(
          (0): Conv2d(672, 160, kernel_size=(1, 1), stride=(1, 1), bias=False)
          (1): BatchNorm2d(160, eps=0.001, momentum=0.01, affine=True, track_running_stats=True)
        )
      )
    )
    (14): InvertedResidual(
      (block): Sequential(
        (0): ConvNormActivation(
          (0): Conv2d(160, 960, kernel_size=(1, 1), stride=(1, 1), bias=False)
          (1): BatchNorm2d(960, eps=0.001, momentum=0.01, affine=True, track_running_stats=True)
          (2): Hardswish()
        )
        (1): ConvNormActivation(
          (0): Conv2d(960, 960, kernel_size=(5, 5), stride=(1, 1), padding=(2, 2), groups=960, bias=False)
          (1): BatchNorm2d(960, eps=0.001, momentum=0.01, affine=True, track_running_stats=True)
          (2): Hardswish()
        )
        (2): SqueezeExcitation(
          (avgpool): AdaptiveAvgPool2d(output_size=1)
          (fc1): Conv2d(960, 240, kernel_size=(1, 1), stride=(1, 1))
          (fc2): Conv2d(240, 960, kernel_size=(1, 1), stride=(1, 1))
          (activation): ReLU()
          (scale_activation): Hardsigmoid()
        )
        (3): ConvNormActivation(
          (0): Conv2d(960, 160, kernel_size=(1, 1), stride=(1, 1), bias=False)
          (1): BatchNorm2d(160, eps=0.001, momentum=0.01, affine=True, track_running_stats=True)
        )
      )
    )
    (15): InvertedResidual(
      (block): Sequential(
        (0): ConvNormActivation(
          (0): Conv2d(160, 960, kernel_size=(1, 1), stride=(1, 1), bias=False)
          (1): BatchNorm2d(960, eps=0.001, momentum=0.01, affine=True, track_running_stats=True)
          (2): Hardswish()
        )
        (1): ConvNormActivation(
          (0): Conv2d(960, 960, kernel_size=(5, 5), stride=(1, 1), padding=(2, 2), groups=960, bias=False)
          (1): BatchNorm2d(960, eps=0.001, momentum=0.01, affine=True, track_running_stats=True)
          (2): Hardswish()
        )
        (2): SqueezeExcitation(
          (avgpool): AdaptiveAvgPool2d(output_size=1)
          (fc1): Conv2d(960, 240, kernel_size=(1, 1), stride=(1, 1))
          (fc2): Conv2d(240, 960, kernel_size=(1, 1), stride=(1, 1))
          (activation): ReLU()
          (scale_activation): Hardsigmoid()
        )
        (3): ConvNormActivation(
          (0): Conv2d(960, 160, kernel_size=(1, 1), stride=(1, 1), bias=False)
          (1): BatchNorm2d(160, eps=0.001, momentum=0.01, affine=True, track_running_stats=True)
        )
      )
    )
    (16): ConvNormActivation(
      (0): Conv2d(160, 960, kernel_size=(1, 1), stride=(1, 1), bias=False)
      (1): BatchNorm2d(960, eps=0.001, momentum=0.01, affine=True, track_running_stats=True)
      (2): Hardswish()
    )
  )
  (avgpool): AdaptiveAvgPool2d(output_size=1)
  (classifier): Sequential(
    (0): Linear(in_features=960, out_features=1280, bias=True)
    (1): Hardswish()
    (2): Dropout(p=0.2, inplace=True)
    (3): Linear(in_features=1280, out_features=7, bias=True)
  )
)

batch_size = 100
epochs = 64
loss_function = CrossEntropyLoss()
optimizer = Adam (
Parameter Group 0
    amsgrad: False
    betas: (0.9, 0.999)
    eps: 1e-08
    lr: 0.001
    weight_decay: 0
)
