…
    accuracy                         0.4378       185
   macro avg     0.3262    0.3501    0.3174       185
weighted avg     0.4091    0.4378    0.4075       185

micro f-score: 0.43783783783783786

Finished training!!!

Min Loss = 1.128 in epoch 63;
Max Accuracy = 46.49% in epoch 58;
Total Cost 31 minutes

==========================================================================================
Layer (type:depth-idx)                   Output Shape              Param #
==========================================================================================
├─Sequential: 1-1                        [-1, 256, 9, 9]           --
|    └─Conv2d: 2-1                       [-1, 64, 79, 79]          23,296
|    └─BatchNorm2d: 2-2                  [-1, 64, 79, 79]          128
|    └─ReLU: 2-3                         [-1, 64, 79, 79]          --
|    └─MaxPool2d: 2-4                    [-1, 64, 39, 39]          --
|    └─Conv2d: 2-5                       [-1, 192, 39, 39]         307,392
|    └─BatchNorm2d: 2-6                  [-1, 192, 39, 39]         384
|    └─ReLU: 2-7                         [-1, 192, 39, 39]         --
|    └─MaxPool2d: 2-8                    [-1, 192, 19, 19]         --
|    └─Conv2d: 2-9                       [-1, 384, 19, 19]         663,936
|    └─BatchNorm2d: 2-10                 [-1, 384, 19, 19]         768
|    └─ReLU: 2-11                        [-1, 384, 19, 19]         --
|    └─Conv2d: 2-12                      [-1, 256, 19, 19]         884,992
|    └─BatchNorm2d: 2-13                 [-1, 256, 19, 19]         512
|    └─ReLU: 2-14                        [-1, 256, 19, 19]         --
|    └─Conv2d: 2-15                      [-1, 256, 19, 19]         590,080
|    └─BatchNorm2d: 2-16                 [-1, 256, 19, 19]         512
|    └─ReLU: 2-17                        [-1, 256, 19, 19]         --
|    └─MaxPool2d: 2-18                   [-1, 256, 9, 9]           --
├─AdaptiveAvgPool2d: 1-2                 [-1, 256, 6, 6]           --
├─Sequential: 1-3                        [-1, 7]                   --
|    └─Dropout: 2-19                     [-1, 9216]                --
|    └─Linear: 2-20                      [-1, 4096]                37,752,832
|    └─ReLU: 2-21                        [-1, 4096]                --
|    └─Dropout: 2-22                     [-1, 4096]                --
|    └─Linear: 2-23                      [-1, 4096]                16,781,312
|    └─ReLU: 2-24                        [-1, 4096]                --
|    └─Linear: 2-25                      [-1, 7]                   28,679
==========================================================================================
Total params: 57,034,823
Trainable params: 57,034,823
Non-trainable params: 0
Total mult-adds (G): 1.50
==========================================================================================
Input size (MB): 1.17
Forward/backward pass size (MB): 15.55
Params size (MB): 217.57
Estimated Total Size (MB): 234.29
…
