…
    accuracy                         0.5892       185
   macro avg     0.5491    0.5578    0.5423       185
weighted avg     0.5988    0.5892    0.5858       185

micro f-score: 0.5891891891891892

Finished training!!!

Min Loss = 0.464 in epoch 62;
Max Accuracy = 61.08% in epoch 59;
Total Cost 39 minutes

===============================================================================================
Layer (type:depth-idx)                        Output Shape              Param #
===============================================================================================
├─Conv2d: 1-1                                 [-1, 64, 160, 160]        9,408
├─BatchNorm2d: 1-2                            [-1, 64, 160, 160]        128
├─ReLU: 1-3                                   [-1, 64, 160, 160]        --
├─MaxPool2d: 1-4                              [-1, 64, 80, 80]          --
├─Sequential: 1-5                             [-1, 64, 80, 80]          --
|    └─BasicBlock: 2-1                        [-1, 64, 80, 80]          --
|    |    └─Conv2d: 3-1                       [-1, 64, 80, 80]          36,864
|    |    └─BatchNorm2d: 3-2                  [-1, 64, 80, 80]          128
|    |    └─ReLU: 3-3                         [-1, 64, 80, 80]          --
|    |    └─Conv2d: 3-4                       [-1, 64, 80, 80]          36,864
|    |    └─BatchNorm2d: 3-5                  [-1, 64, 80, 80]          128
|    |    └─CoordAtt: 3-6                     [-1, 64, 80, 80]          1,688
|    |    └─ReLU: 3-7                         [-1, 64, 80, 80]          --
|    └─BasicBlock: 2-2                        [-1, 64, 80, 80]          --
|    |    └─Conv2d: 3-8                       [-1, 64, 80, 80]          36,864
|    |    └─BatchNorm2d: 3-9                  [-1, 64, 80, 80]          128
|    |    └─ReLU: 3-10                        [-1, 64, 80, 80]          --
|    |    └─Conv2d: 3-11                      [-1, 64, 80, 80]          36,864
|    |    └─BatchNorm2d: 3-12                 [-1, 64, 80, 80]          128
|    |    └─CoordAtt: 3-13                    [-1, 64, 80, 80]          1,688
|    |    └─ReLU: 3-14                        [-1, 64, 80, 80]          --
├─Sequential: 1-6                             [-1, 128, 40, 40]         --
|    └─BasicBlock: 2-3                        [-1, 128, 40, 40]         --
|    |    └─Conv2d: 3-15                      [-1, 128, 40, 40]         73,728
|    |    └─BatchNorm2d: 3-16                 [-1, 128, 40, 40]         256
|    |    └─ReLU: 3-17                        [-1, 128, 40, 40]         --
|    |    └─Conv2d: 3-18                      [-1, 128, 40, 40]         147,456
|    |    └─BatchNorm2d: 3-19                 [-1, 128, 40, 40]         256
|    |    └─CoordAtt: 3-20                    [-1, 128, 40, 40]         3,352
|    |    └─Sequential: 3-21                  [-1, 128, 40, 40]         8,448
|    |    └─ReLU: 3-22                        [-1, 128, 40, 40]         --
|    └─BasicBlock: 2-4                        [-1, 128, 40, 40]         --
|    |    └─Conv2d: 3-23                      [-1, 128, 40, 40]         147,456
|    |    └─BatchNorm2d: 3-24                 [-1, 128, 40, 40]         256
|    |    └─ReLU: 3-25                        [-1, 128, 40, 40]         --
|    |    └─Conv2d: 3-26                      [-1, 128, 40, 40]         147,456
|    |    └─BatchNorm2d: 3-27                 [-1, 128, 40, 40]         256
|    |    └─CoordAtt: 3-28                    [-1, 128, 40, 40]         3,352
|    |    └─ReLU: 3-29                        [-1, 128, 40, 40]         --
├─Sequential: 1-7                             [-1, 256, 20, 20]         --
|    └─BasicBlock: 2-5                        [-1, 256, 20, 20]         --
|    |    └─Conv2d: 3-30                      [-1, 256, 20, 20]         294,912
|    |    └─BatchNorm2d: 3-31                 [-1, 256, 20, 20]         512
|    |    └─ReLU: 3-32                        [-1, 256, 20, 20]         --
|    |    └─Conv2d: 3-33                      [-1, 256, 20, 20]         589,824
|    |    └─BatchNorm2d: 3-34                 [-1, 256, 20, 20]         512
|    |    └─CoordAtt: 3-35                    [-1, 256, 20, 20]         6,680
|    |    └─Sequential: 3-36                  [-1, 256, 20, 20]         33,280
|    |    └─ReLU: 3-37                        [-1, 256, 20, 20]         --
|    └─BasicBlock: 2-6                        [-1, 256, 20, 20]         --
|    |    └─Conv2d: 3-38                      [-1, 256, 20, 20]         589,824
|    |    └─BatchNorm2d: 3-39                 [-1, 256, 20, 20]         512
|    |    └─ReLU: 3-40                        [-1, 256, 20, 20]         --
|    |    └─Conv2d: 3-41                      [-1, 256, 20, 20]         589,824
|    |    └─BatchNorm2d: 3-42                 [-1, 256, 20, 20]         512
|    |    └─CoordAtt: 3-43                    [-1, 256, 20, 20]         6,680
|    |    └─ReLU: 3-44                        [-1, 256, 20, 20]         --
├─Sequential: 1-8                             [-1, 512, 10, 10]         --
|    └─BasicBlock: 2-7                        [-1, 512, 10, 10]         --
|    |    └─Conv2d: 3-45                      [-1, 512, 10, 10]         1,179,648
|    |    └─BatchNorm2d: 3-46                 [-1, 512, 10, 10]         1,024
|    |    └─ReLU: 3-47                        [-1, 512, 10, 10]         --
|    |    └─Conv2d: 3-48                      [-1, 512, 10, 10]         2,359,296
|    |    └─BatchNorm2d: 3-49                 [-1, 512, 10, 10]         1,024
|    |    └─CoordAtt: 3-50                    [-1, 512, 10, 10]         25,648
|    |    └─Sequential: 3-51                  [-1, 512, 10, 10]         132,096
|    |    └─ReLU: 3-52                        [-1, 512, 10, 10]         --
|    └─BasicBlock: 2-8                        [-1, 512, 10, 10]         --
|    |    └─Conv2d: 3-53                      [-1, 512, 10, 10]         2,359,296
|    |    └─BatchNorm2d: 3-54                 [-1, 512, 10, 10]         1,024
|    |    └─ReLU: 3-55                        [-1, 512, 10, 10]         --
|    |    └─Conv2d: 3-56                      [-1, 512, 10, 10]         2,359,296
|    |    └─BatchNorm2d: 3-57                 [-1, 512, 10, 10]         1,024
|    |    └─CoordAtt: 3-58                    [-1, 512, 10, 10]         25,648
|    |    └─ReLU: 3-59                        [-1, 512, 10, 10]         --
├─AdaptiveAvgPool2d: 1-9                      [-1, 512, 1, 1]           --
├─Linear: 1-10                                [-1, 7]                   3,591
===============================================================================================
Total params: 11,254,839
Trainable params: 11,254,839
Non-trainable params: 0
Total mult-adds (G): 3.73
===============================================================================================
Input size (MB): 1.17
Forward/backward pass size (MB): 78.05
Params size (MB): 42.93
Estimated Total Size (MB): 122.15
…
