…
    accuracy                         0.7027       185
   macro avg     0.6998    0.6448    0.6530       185
weighted avg     0.7186    0.7027    0.6928       185

micro f-score: 0.7027027027027027

Finished training!!!

Min Loss = 0.013 in epoch 62;
Max Accuracy = 70.27% in epoch 63;
Total Cost 37 minutes

==========================================================================================
Layer (type:depth-idx)                   Output Shape              Param #
==========================================================================================
├─Conv2d: 1-1                            [-1, 64, 160, 160]        9,408
├─BatchNorm2d: 1-2                       [-1, 64, 160, 160]        128
├─ReLU: 1-3                              [-1, 64, 160, 160]        --
├─SPPB: 1-4                              [-1, 64, 160, 160]        --
|    └─Conv: 2-1                         [-1, 32, 160, 160]        --
|    |    └─Conv2d: 3-1                  [-1, 32, 160, 160]        2,048
|    |    └─BatchNorm2d: 3-2             [-1, 32, 160, 160]        64
|    |    └─ReLU: 3-3                    [-1, 32, 160, 160]        --
|    └─ModuleList: 2                     []                        --
|    |    └─MaxPool2d: 3-4               [-1, 32, 160, 160]        --
|    |    └─MaxPool2d: 3-5               [-1, 32, 160, 160]        --
|    |    └─MaxPool2d: 3-6               [-1, 32, 160, 160]        --
|    └─Conv: 2-2                         [-1, 64, 160, 160]        --
|    |    └─Conv2d: 3-7                  [-1, 64, 160, 160]        8,192
|    |    └─BatchNorm2d: 3-8             [-1, 64, 160, 160]        128
|    |    └─ReLU: 3-9                    [-1, 64, 160, 160]        --
├─Sequential: 1-5                        [-1, 64, 160, 160]        --
|    └─BasicBlock: 2-3                   [-1, 64, 160, 160]        --
|    |    └─Conv2d: 3-10                 [-1, 64, 160, 160]        36,864
|    |    └─BatchNorm2d: 3-11            [-1, 64, 160, 160]        128
|    |    └─ReLU: 3-12                   [-1, 64, 160, 160]        --
|    |    └─Conv2d: 3-13                 [-1, 64, 160, 160]        36,864
|    |    └─BatchNorm2d: 3-14            [-1, 64, 160, 160]        128
|    |    └─ReLU: 3-15                   [-1, 64, 160, 160]        --
|    └─BasicBlock: 2-4                   [-1, 64, 160, 160]        --
|    |    └─Conv2d: 3-16                 [-1, 64, 160, 160]        36,864
|    |    └─BatchNorm2d: 3-17            [-1, 64, 160, 160]        128
|    |    └─ReLU: 3-18                   [-1, 64, 160, 160]        --
|    |    └─Conv2d: 3-19                 [-1, 64, 160, 160]        36,864
|    |    └─BatchNorm2d: 3-20            [-1, 64, 160, 160]        128
|    |    └─ReLU: 3-21                   [-1, 64, 160, 160]        --
|    └─BasicBlock: 2-5                   [-1, 64, 160, 160]        --
|    |    └─Conv2d: 3-22                 [-1, 64, 160, 160]        36,864
|    |    └─BatchNorm2d: 3-23            [-1, 64, 160, 160]        128
|    |    └─ReLU: 3-24                   [-1, 64, 160, 160]        --
|    |    └─Conv2d: 3-25                 [-1, 64, 160, 160]        36,864
|    |    └─BatchNorm2d: 3-26            [-1, 64, 160, 160]        128
|    |    └─ReLU: 3-27                   [-1, 64, 160, 160]        --
├─Sequential: 1-6                        [-1, 128, 80, 80]         --
|    └─BasicBlock: 2-6                   [-1, 128, 80, 80]         --
|    |    └─Conv2d: 3-28                 [-1, 128, 80, 80]         73,728
|    |    └─BatchNorm2d: 3-29            [-1, 128, 80, 80]         256
|    |    └─ReLU: 3-30                   [-1, 128, 80, 80]         --
|    |    └─Conv2d: 3-31                 [-1, 128, 80, 80]         147,456
|    |    └─BatchNorm2d: 3-32            [-1, 128, 80, 80]         256
|    |    └─Sequential: 3-33             [-1, 128, 80, 80]         8,448
|    |    └─ReLU: 3-34                   [-1, 128, 80, 80]         --
|    └─BasicBlock: 2-7                   [-1, 128, 80, 80]         --
|    |    └─Conv2d: 3-35                 [-1, 128, 80, 80]         147,456
|    |    └─BatchNorm2d: 3-36            [-1, 128, 80, 80]         256
|    |    └─ReLU: 3-37                   [-1, 128, 80, 80]         --
|    |    └─Conv2d: 3-38                 [-1, 128, 80, 80]         147,456
|    |    └─BatchNorm2d: 3-39            [-1, 128, 80, 80]         256
|    |    └─ReLU: 3-40                   [-1, 128, 80, 80]         --
|    └─BasicBlock: 2-8                   [-1, 128, 80, 80]         --
|    |    └─Conv2d: 3-41                 [-1, 128, 80, 80]         147,456
|    |    └─BatchNorm2d: 3-42            [-1, 128, 80, 80]         256
|    |    └─ReLU: 3-43                   [-1, 128, 80, 80]         --
|    |    └─Conv2d: 3-44                 [-1, 128, 80, 80]         147,456
|    |    └─BatchNorm2d: 3-45            [-1, 128, 80, 80]         256
|    |    └─ReLU: 3-46                   [-1, 128, 80, 80]         --
|    └─BasicBlock: 2-9                   [-1, 128, 80, 80]         --
|    |    └─Conv2d: 3-47                 [-1, 128, 80, 80]         147,456
|    |    └─BatchNorm2d: 3-48            [-1, 128, 80, 80]         256
|    |    └─ReLU: 3-49                   [-1, 128, 80, 80]         --
|    |    └─Conv2d: 3-50                 [-1, 128, 80, 80]         147,456
|    |    └─BatchNorm2d: 3-51            [-1, 128, 80, 80]         256
|    |    └─ReLU: 3-52                   [-1, 128, 80, 80]         --
├─Sequential: 1-7                        [-1, 256, 40, 40]         --
|    └─BasicBlock: 2-10                  [-1, 256, 40, 40]         --
|    |    └─Conv2d: 3-53                 [-1, 256, 40, 40]         294,912
|    |    └─BatchNorm2d: 3-54            [-1, 256, 40, 40]         512
|    |    └─ReLU: 3-55                   [-1, 256, 40, 40]         --
|    |    └─Conv2d: 3-56                 [-1, 256, 40, 40]         589,824
|    |    └─BatchNorm2d: 3-57            [-1, 256, 40, 40]         512
|    |    └─Sequential: 3-58             [-1, 256, 40, 40]         33,280
|    |    └─ReLU: 3-59                   [-1, 256, 40, 40]         --
|    └─BasicBlock: 2-11                  [-1, 256, 40, 40]         --
|    |    └─Conv2d: 3-60                 [-1, 256, 40, 40]         589,824
|    |    └─BatchNorm2d: 3-61            [-1, 256, 40, 40]         512
|    |    └─ReLU: 3-62                   [-1, 256, 40, 40]         --
|    |    └─Conv2d: 3-63                 [-1, 256, 40, 40]         589,824
|    |    └─BatchNorm2d: 3-64            [-1, 256, 40, 40]         512
|    |    └─ReLU: 3-65                   [-1, 256, 40, 40]         --
|    └─BasicBlock: 2-12                  [-1, 256, 40, 40]         --
|    |    └─Conv2d: 3-66                 [-1, 256, 40, 40]         589,824
|    |    └─BatchNorm2d: 3-67            [-1, 256, 40, 40]         512
|    |    └─ReLU: 3-68                   [-1, 256, 40, 40]         --
|    |    └─Conv2d: 3-69                 [-1, 256, 40, 40]         589,824
|    |    └─BatchNorm2d: 3-70            [-1, 256, 40, 40]         512
|    |    └─ReLU: 3-71                   [-1, 256, 40, 40]         --
|    └─BasicBlock: 2-13                  [-1, 256, 40, 40]         --
|    |    └─Conv2d: 3-72                 [-1, 256, 40, 40]         589,824
|    |    └─BatchNorm2d: 3-73            [-1, 256, 40, 40]         512
|    |    └─ReLU: 3-74                   [-1, 256, 40, 40]         --
|    |    └─Conv2d: 3-75                 [-1, 256, 40, 40]         589,824
|    |    └─BatchNorm2d: 3-76            [-1, 256, 40, 40]         512
|    |    └─ReLU: 3-77                   [-1, 256, 40, 40]         --
|    └─BasicBlock: 2-14                  [-1, 256, 40, 40]         --
|    |    └─Conv2d: 3-78                 [-1, 256, 40, 40]         589,824
|    |    └─BatchNorm2d: 3-79            [-1, 256, 40, 40]         512
|    |    └─ReLU: 3-80                   [-1, 256, 40, 40]         --
|    |    └─Conv2d: 3-81                 [-1, 256, 40, 40]         589,824
|    |    └─BatchNorm2d: 3-82            [-1, 256, 40, 40]         512
|    |    └─ReLU: 3-83                   [-1, 256, 40, 40]         --
|    └─BasicBlock: 2-15                  [-1, 256, 40, 40]         --
|    |    └─Conv2d: 3-84                 [-1, 256, 40, 40]         589,824
|    |    └─BatchNorm2d: 3-85            [-1, 256, 40, 40]         512
|    |    └─ReLU: 3-86                   [-1, 256, 40, 40]         --
|    |    └─Conv2d: 3-87                 [-1, 256, 40, 40]         589,824
|    |    └─BatchNorm2d: 3-88            [-1, 256, 40, 40]         512
|    |    └─ReLU: 3-89                   [-1, 256, 40, 40]         --
├─Sequential: 1-8                        [-1, 512, 20, 20]         --
|    └─BasicBlock: 2-16                  [-1, 512, 20, 20]         --
|    |    └─Conv2d: 3-90                 [-1, 512, 20, 20]         1,179,648
|    |    └─BatchNorm2d: 3-91            [-1, 512, 20, 20]         1,024
|    |    └─ReLU: 3-92                   [-1, 512, 20, 20]         --
|    |    └─Conv2d: 3-93                 [-1, 512, 20, 20]         2,359,296
|    |    └─BatchNorm2d: 3-94            [-1, 512, 20, 20]         1,024
|    |    └─Sequential: 3-95             [-1, 512, 20, 20]         132,096
|    |    └─ReLU: 3-96                   [-1, 512, 20, 20]         --
|    └─BasicBlock: 2-17                  [-1, 512, 20, 20]         --
|    |    └─Conv2d: 3-97                 [-1, 512, 20, 20]         2,359,296
|    |    └─BatchNorm2d: 3-98            [-1, 512, 20, 20]         1,024
|    |    └─ReLU: 3-99                   [-1, 512, 20, 20]         --
|    |    └─Conv2d: 3-100                [-1, 512, 20, 20]         2,359,296
|    |    └─BatchNorm2d: 3-101           [-1, 512, 20, 20]         1,024
|    |    └─ReLU: 3-102                  [-1, 512, 20, 20]         --
|    └─BasicBlock: 2-18                  [-1, 512, 20, 20]         --
|    |    └─Conv2d: 3-103                [-1, 512, 20, 20]         2,359,296
|    |    └─BatchNorm2d: 3-104           [-1, 512, 20, 20]         1,024
|    |    └─ReLU: 3-105                  [-1, 512, 20, 20]         --
|    |    └─Conv2d: 3-106                [-1, 512, 20, 20]         2,359,296
|    |    └─BatchNorm2d: 3-107           [-1, 512, 20, 20]         1,024
|    |    └─ReLU: 3-108                  [-1, 512, 20, 20]         --
├─AdaptiveAvgPool2d: 1-9                 [-1, 512, 1, 1]           --
├─Linear: 1-10                           [-1, 7]                   3,591
==========================================================================================
Total params: 21,298,695
Trainable params: 21,298,695
Non-trainable params: 0
Total mult-adds (G): 29.49
==========================================================================================
Input size (MB): 1.17
Forward/backward pass size (MB): 428.13
Params size (MB): 81.25
Estimated Total Size (MB): 510.55
…
