…
    accuracy                         0.6108       185
   macro avg     0.6212    0.5716    0.5702       185
weighted avg     0.6335    0.6108    0.6023       185

micro f-score: 0.6108108108108108

Finished training!!!

Min Loss = 0.074 in epoch 62;
Max Accuracy = 67.57% in epoch 58;
Total Cost 31 minutes

===============================================================================================
Layer (type:depth-idx)                        Output Shape              Param #
===============================================================================================
├─Conv2d: 1-1                                 [-1, 64, 160, 160]        9,408
├─BatchNorm2d: 1-2                            [-1, 64, 160, 160]        128
├─ReLU: 1-3                                   [-1, 64, 160, 160]        --
├─MaxPool2d: 1-4                              [-1, 64, 80, 80]          --
├─Sequential: 1-5                             [-1, 64, 80, 80]          --
|    └─BasicBlock: 2-1                        [-1, 64, 80, 80]          --
|    |    └─Conv2d: 3-1                       [-1, 64, 80, 80]          36,864
|    |    └─BatchNorm2d: 3-2                  [-1, 64, 80, 80]          128
|    |    └─ReLU: 3-3                         [-1, 64, 80, 80]          --
|    |    └─Conv2d: 3-4                       [-1, 64, 80, 80]          36,864
|    |    └─BatchNorm2d: 3-5                  [-1, 64, 80, 80]          128
|    |    └─CoordAtt: 3-6                     [-1, 64, 80, 80]          1,688
|    |    └─ReLU: 3-7                         [-1, 64, 80, 80]          --
|    └─BasicBlock: 2-2                        [-1, 64, 80, 80]          --
|    |    └─Conv2d: 3-8                       [-1, 64, 80, 80]          36,864
|    |    └─BatchNorm2d: 3-9                  [-1, 64, 80, 80]          128
|    |    └─ReLU: 3-10                        [-1, 64, 80, 80]          --
|    |    └─Conv2d: 3-11                      [-1, 64, 80, 80]          36,864
|    |    └─BatchNorm2d: 3-12                 [-1, 64, 80, 80]          128
|    |    └─CoordAtt: 3-13                    [-1, 64, 80, 80]          1,688
|    |    └─ReLU: 3-14                        [-1, 64, 80, 80]          --
|    └─BasicBlock: 2-3                        [-1, 64, 80, 80]          --
|    |    └─Conv2d: 3-15                      [-1, 64, 80, 80]          36,864
|    |    └─BatchNorm2d: 3-16                 [-1, 64, 80, 80]          128
|    |    └─ReLU: 3-17                        [-1, 64, 80, 80]          --
|    |    └─Conv2d: 3-18                      [-1, 64, 80, 80]          36,864
|    |    └─BatchNorm2d: 3-19                 [-1, 64, 80, 80]          128
|    |    └─CoordAtt: 3-20                    [-1, 64, 80, 80]          1,688
|    |    └─ReLU: 3-21                        [-1, 64, 80, 80]          --
├─Sequential: 1-6                             [-1, 128, 40, 40]         --
|    └─BasicBlock: 2-4                        [-1, 128, 40, 40]         --
|    |    └─Conv2d: 3-22                      [-1, 128, 40, 40]         73,728
|    |    └─BatchNorm2d: 3-23                 [-1, 128, 40, 40]         256
|    |    └─ReLU: 3-24                        [-1, 128, 40, 40]         --
|    |    └─Conv2d: 3-25                      [-1, 128, 40, 40]         147,456
|    |    └─BatchNorm2d: 3-26                 [-1, 128, 40, 40]         256
|    |    └─CoordAtt: 3-27                    [-1, 128, 40, 40]         3,352
|    |    └─Sequential: 3-28                  [-1, 128, 40, 40]         8,448
|    |    └─ReLU: 3-29                        [-1, 128, 40, 40]         --
|    └─BasicBlock: 2-5                        [-1, 128, 40, 40]         --
|    |    └─Conv2d: 3-30                      [-1, 128, 40, 40]         147,456
|    |    └─BatchNorm2d: 3-31                 [-1, 128, 40, 40]         256
|    |    └─ReLU: 3-32                        [-1, 128, 40, 40]         --
|    |    └─Conv2d: 3-33                      [-1, 128, 40, 40]         147,456
|    |    └─BatchNorm2d: 3-34                 [-1, 128, 40, 40]         256
|    |    └─CoordAtt: 3-35                    [-1, 128, 40, 40]         3,352
|    |    └─ReLU: 3-36                        [-1, 128, 40, 40]         --
|    └─BasicBlock: 2-6                        [-1, 128, 40, 40]         --
|    |    └─Conv2d: 3-37                      [-1, 128, 40, 40]         147,456
|    |    └─BatchNorm2d: 3-38                 [-1, 128, 40, 40]         256
|    |    └─ReLU: 3-39                        [-1, 128, 40, 40]         --
|    |    └─Conv2d: 3-40                      [-1, 128, 40, 40]         147,456
|    |    └─BatchNorm2d: 3-41                 [-1, 128, 40, 40]         256
|    |    └─CoordAtt: 3-42                    [-1, 128, 40, 40]         3,352
|    |    └─ReLU: 3-43                        [-1, 128, 40, 40]         --
|    └─BasicBlock: 2-7                        [-1, 128, 40, 40]         --
|    |    └─Conv2d: 3-44                      [-1, 128, 40, 40]         147,456
|    |    └─BatchNorm2d: 3-45                 [-1, 128, 40, 40]         256
|    |    └─ReLU: 3-46                        [-1, 128, 40, 40]         --
|    |    └─Conv2d: 3-47                      [-1, 128, 40, 40]         147,456
|    |    └─BatchNorm2d: 3-48                 [-1, 128, 40, 40]         256
|    |    └─CoordAtt: 3-49                    [-1, 128, 40, 40]         3,352
|    |    └─ReLU: 3-50                        [-1, 128, 40, 40]         --
├─Sequential: 1-7                             [-1, 256, 20, 20]         --
|    └─BasicBlock: 2-8                        [-1, 256, 20, 20]         --
|    |    └─Conv2d: 3-51                      [-1, 256, 20, 20]         294,912
|    |    └─BatchNorm2d: 3-52                 [-1, 256, 20, 20]         512
|    |    └─ReLU: 3-53                        [-1, 256, 20, 20]         --
|    |    └─Conv2d: 3-54                      [-1, 256, 20, 20]         589,824
|    |    └─BatchNorm2d: 3-55                 [-1, 256, 20, 20]         512
|    |    └─CoordAtt: 3-56                    [-1, 256, 20, 20]         6,680
|    |    └─Sequential: 3-57                  [-1, 256, 20, 20]         33,280
|    |    └─ReLU: 3-58                        [-1, 256, 20, 20]         --
|    └─BasicBlock: 2-9                        [-1, 256, 20, 20]         --
|    |    └─Conv2d: 3-59                      [-1, 256, 20, 20]         589,824
|    |    └─BatchNorm2d: 3-60                 [-1, 256, 20, 20]         512
|    |    └─ReLU: 3-61                        [-1, 256, 20, 20]         --
|    |    └─Conv2d: 3-62                      [-1, 256, 20, 20]         589,824
|    |    └─BatchNorm2d: 3-63                 [-1, 256, 20, 20]         512
|    |    └─CoordAtt: 3-64                    [-1, 256, 20, 20]         6,680
|    |    └─ReLU: 3-65                        [-1, 256, 20, 20]         --
|    └─BasicBlock: 2-10                       [-1, 256, 20, 20]         --
|    |    └─Conv2d: 3-66                      [-1, 256, 20, 20]         589,824
|    |    └─BatchNorm2d: 3-67                 [-1, 256, 20, 20]         512
|    |    └─ReLU: 3-68                        [-1, 256, 20, 20]         --
|    |    └─Conv2d: 3-69                      [-1, 256, 20, 20]         589,824
|    |    └─BatchNorm2d: 3-70                 [-1, 256, 20, 20]         512
|    |    └─CoordAtt: 3-71                    [-1, 256, 20, 20]         6,680
|    |    └─ReLU: 3-72                        [-1, 256, 20, 20]         --
|    └─BasicBlock: 2-11                       [-1, 256, 20, 20]         --
|    |    └─Conv2d: 3-73                      [-1, 256, 20, 20]         589,824
|    |    └─BatchNorm2d: 3-74                 [-1, 256, 20, 20]         512
|    |    └─ReLU: 3-75                        [-1, 256, 20, 20]         --
|    |    └─Conv2d: 3-76                      [-1, 256, 20, 20]         589,824
|    |    └─BatchNorm2d: 3-77                 [-1, 256, 20, 20]         512
|    |    └─CoordAtt: 3-78                    [-1, 256, 20, 20]         6,680
|    |    └─ReLU: 3-79                        [-1, 256, 20, 20]         --
|    └─BasicBlock: 2-12                       [-1, 256, 20, 20]         --
|    |    └─Conv2d: 3-80                      [-1, 256, 20, 20]         589,824
|    |    └─BatchNorm2d: 3-81                 [-1, 256, 20, 20]         512
|    |    └─ReLU: 3-82                        [-1, 256, 20, 20]         --
|    |    └─Conv2d: 3-83                      [-1, 256, 20, 20]         589,824
|    |    └─BatchNorm2d: 3-84                 [-1, 256, 20, 20]         512
|    |    └─CoordAtt: 3-85                    [-1, 256, 20, 20]         6,680
|    |    └─ReLU: 3-86                        [-1, 256, 20, 20]         --
|    └─BasicBlock: 2-13                       [-1, 256, 20, 20]         --
|    |    └─Conv2d: 3-87                      [-1, 256, 20, 20]         589,824
|    |    └─BatchNorm2d: 3-88                 [-1, 256, 20, 20]         512
|    |    └─ReLU: 3-89                        [-1, 256, 20, 20]         --
|    |    └─Conv2d: 3-90                      [-1, 256, 20, 20]         589,824
|    |    └─BatchNorm2d: 3-91                 [-1, 256, 20, 20]         512
|    |    └─CoordAtt: 3-92                    [-1, 256, 20, 20]         6,680
|    |    └─ReLU: 3-93                        [-1, 256, 20, 20]         --
├─Sequential: 1-8                             [-1, 512, 10, 10]         --
|    └─BasicBlock: 2-14                       [-1, 512, 10, 10]         --
|    |    └─Conv2d: 3-94                      [-1, 512, 10, 10]         1,179,648
|    |    └─BatchNorm2d: 3-95                 [-1, 512, 10, 10]         1,024
|    |    └─ReLU: 3-96                        [-1, 512, 10, 10]         --
|    |    └─Conv2d: 3-97                      [-1, 512, 10, 10]         2,359,296
|    |    └─BatchNorm2d: 3-98                 [-1, 512, 10, 10]         1,024
|    |    └─CoordAtt: 3-99                    [-1, 512, 10, 10]         25,648
|    |    └─Sequential: 3-100                 [-1, 512, 10, 10]         132,096
|    |    └─ReLU: 3-101                       [-1, 512, 10, 10]         --
|    └─BasicBlock: 2-15                       [-1, 512, 10, 10]         --
|    |    └─Conv2d: 3-102                     [-1, 512, 10, 10]         2,359,296
|    |    └─BatchNorm2d: 3-103                [-1, 512, 10, 10]         1,024
|    |    └─ReLU: 3-104                       [-1, 512, 10, 10]         --
|    |    └─Conv2d: 3-105                     [-1, 512, 10, 10]         2,359,296
|    |    └─BatchNorm2d: 3-106                [-1, 512, 10, 10]         1,024
|    |    └─CoordAtt: 3-107                   [-1, 512, 10, 10]         25,648
|    |    └─ReLU: 3-108                       [-1, 512, 10, 10]         --
|    └─BasicBlock: 2-16                       [-1, 512, 10, 10]         --
|    |    └─Conv2d: 3-109                     [-1, 512, 10, 10]         2,359,296
|    |    └─BatchNorm2d: 3-110                [-1, 512, 10, 10]         1,024
|    |    └─ReLU: 3-111                       [-1, 512, 10, 10]         --
|    |    └─Conv2d: 3-112                     [-1, 512, 10, 10]         2,359,296
|    |    └─BatchNorm2d: 3-113                [-1, 512, 10, 10]         1,024
|    |    └─CoordAtt: 3-114                   [-1, 512, 10, 10]         25,648
|    |    └─ReLU: 3-115                       [-1, 512, 10, 10]         --
├─AdaptiveAvgPool2d: 1-9                      [-1, 512, 1, 1]           --
├─Linear: 1-10                                [-1, 7]                   3,591
===============================================================================================
Total params: 21,423,759
Trainable params: 21,423,759
Non-trainable params: 0
Total mult-adds (G): 7.52
===============================================================================================
Input size (MB): 1.17
Forward/backward pass size (MB): 117.80
Params size (MB): 81.73
Estimated Total Size (MB): 200.69
…
