…
Accuracy for class hdx   is: 0.0 %
Accuracy for class mtx   is: 100.0 %
Accuracy for class nqx   is: 0.0 %
Accuracy for class qtx   is: 0.0 %
Accuracy for class zxx   is: 0.0 %

========== Train Epoch 64 ==========
Loss: 1.872	Accuracy: 16 %	Time 190 s
Accuracy for class bzx   is: 0.0 %
Accuracy for class cwx   is: 0.0 %
Accuracy for class hdx   is: 0.0 %
Accuracy for class mtx   is: 100.0 %
Accuracy for class nqx   is: 0.0 %
Accuracy for class qtx   is: 0.0 %
Accuracy for class zxx   is: 0.0 %
Finished training!!!

Min loss = 43.031 in epoch 60, max Accuracy = 20.60% in epoch 1

MNASNet(
  (layers): Sequential(
    (0): Conv2d(3, 8, kernel_size=(3, 3), stride=(2, 2), padding=(1, 1), bias=False)
    (1): BatchNorm2d(8, eps=1e-05, momentum=0.00029999999999996696, affine=True, track_running_stats=True)
    (2): ReLU(inplace=True)
    (3): Conv2d(8, 8, kernel_size=(3, 3), stride=(1, 1), padding=(1, 1), groups=8, bias=False)
    (4): BatchNorm2d(8, eps=1e-05, momentum=0.00029999999999996696, affine=True, track_running_stats=True)
    (5): ReLU(inplace=True)
    (6): Conv2d(8, 8, kernel_size=(1, 1), stride=(1, 1), bias=False)
    (7): BatchNorm2d(8, eps=1e-05, momentum=0.00029999999999996696, affine=True, track_running_stats=True)
    (8): Sequential(
      (0): _InvertedResidual(
        (layers): Sequential(
          (0): Conv2d(8, 24, kernel_size=(1, 1), stride=(1, 1), bias=False)
          (1): BatchNorm2d(24, eps=1e-05, momentum=0.00029999999999996696, affine=True, track_running_stats=True)
          (2): ReLU(inplace=True)
          (3): Conv2d(24, 24, kernel_size=(3, 3), stride=(2, 2), padding=(1, 1), groups=24, bias=False)
          (4): BatchNorm2d(24, eps=1e-05, momentum=0.00029999999999996696, affine=True, track_running_stats=True)
          (5): ReLU(inplace=True)
          (6): Conv2d(24, 8, kernel_size=(1, 1), stride=(1, 1), bias=False)
          (7): BatchNorm2d(8, eps=1e-05, momentum=0.00029999999999996696, affine=True, track_running_stats=True)
        )
      )
      (1): _InvertedResidual(
        (layers): Sequential(
          (0): Conv2d(8, 24, kernel_size=(1, 1), stride=(1, 1), bias=False)
          (1): BatchNorm2d(24, eps=1e-05, momentum=0.00029999999999996696, affine=True, track_running_stats=True)
          (2): ReLU(inplace=True)
          (3): Conv2d(24, 24, kernel_size=(3, 3), stride=(1, 1), padding=(1, 1), groups=24, bias=False)
          (4): BatchNorm2d(24, eps=1e-05, momentum=0.00029999999999996696, affine=True, track_running_stats=True)
          (5): ReLU(inplace=True)
          (6): Conv2d(24, 8, kernel_size=(1, 1), stride=(1, 1), bias=False)
          (7): BatchNorm2d(8, eps=1e-05, momentum=0.00029999999999996696, affine=True, track_running_stats=True)
        )
      )
      (2): _InvertedResidual(
        (layers): Sequential(
          (0): Conv2d(8, 24, kernel_size=(1, 1), stride=(1, 1), bias=False)
          (1): BatchNorm2d(24, eps=1e-05, momentum=0.00029999999999996696, affine=True, track_running_stats=True)
          (2): ReLU(inplace=True)
          (3): Conv2d(24, 24, kernel_size=(3, 3), stride=(1, 1), padding=(1, 1), groups=24, bias=False)
          (4): BatchNorm2d(24, eps=1e-05, momentum=0.00029999999999996696, affine=True, track_running_stats=True)
          (5): ReLU(inplace=True)
          (6): Conv2d(24, 8, kernel_size=(1, 1), stride=(1, 1), bias=False)
          (7): BatchNorm2d(8, eps=1e-05, momentum=0.00029999999999996696, affine=True, track_running_stats=True)
        )
      )
    )
    (9): Sequential(
      (0): _InvertedResidual(
        (layers): Sequential(
          (0): Conv2d(8, 24, kernel_size=(1, 1), stride=(1, 1), bias=False)
          (1): BatchNorm2d(24, eps=1e-05, momentum=0.00029999999999996696, affine=True, track_running_stats=True)
          (2): ReLU(inplace=True)
          (3): Conv2d(24, 24, kernel_size=(5, 5), stride=(2, 2), padding=(2, 2), groups=24, bias=False)
          (4): BatchNorm2d(24, eps=1e-05, momentum=0.00029999999999996696, affine=True, track_running_stats=True)
          (5): ReLU(inplace=True)
          (6): Conv2d(24, 8, kernel_size=(1, 1), stride=(1, 1), bias=False)
          (7): BatchNorm2d(8, eps=1e-05, momentum=0.00029999999999996696, affine=True, track_running_stats=True)
        )
      )
      (1): _InvertedResidual(
        (layers): Sequential(
          (0): Conv2d(8, 24, kernel_size=(1, 1), stride=(1, 1), bias=False)
          (1): BatchNorm2d(24, eps=1e-05, momentum=0.00029999999999996696, affine=True, track_running_stats=True)
          (2): ReLU(inplace=True)
          (3): Conv2d(24, 24, kernel_size=(5, 5), stride=(1, 1), padding=(2, 2), groups=24, bias=False)
          (4): BatchNorm2d(24, eps=1e-05, momentum=0.00029999999999996696, affine=True, track_running_stats=True)
          (5): ReLU(inplace=True)
          (6): Conv2d(24, 8, kernel_size=(1, 1), stride=(1, 1), bias=False)
          (7): BatchNorm2d(8, eps=1e-05, momentum=0.00029999999999996696, affine=True, track_running_stats=True)
        )
      )
      (2): _InvertedResidual(
        (layers): Sequential(
          (0): Conv2d(8, 24, kernel_size=(1, 1), stride=(1, 1), bias=False)
          (1): BatchNorm2d(24, eps=1e-05, momentum=0.00029999999999996696, affine=True, track_running_stats=True)
          (2): ReLU(inplace=True)
          (3): Conv2d(24, 24, kernel_size=(5, 5), stride=(1, 1), padding=(2, 2), groups=24, bias=False)
          (4): BatchNorm2d(24, eps=1e-05, momentum=0.00029999999999996696, affine=True, track_running_stats=True)
          (5): ReLU(inplace=True)
          (6): Conv2d(24, 8, kernel_size=(1, 1), stride=(1, 1), bias=False)
          (7): BatchNorm2d(8, eps=1e-05, momentum=0.00029999999999996696, affine=True, track_running_stats=True)
        )
      )
    )
    (10): Sequential(
      (0): _InvertedResidual(
        (layers): Sequential(
          (0): Conv2d(8, 48, kernel_size=(1, 1), stride=(1, 1), bias=False)
          (1): BatchNorm2d(48, eps=1e-05, momentum=0.00029999999999996696, affine=True, track_running_stats=True)
          (2): ReLU(inplace=True)
          (3): Conv2d(48, 48, kernel_size=(5, 5), stride=(2, 2), padding=(2, 2), groups=48, bias=False)
          (4): BatchNorm2d(48, eps=1e-05, momentum=0.00029999999999996696, affine=True, track_running_stats=True)
          (5): ReLU(inplace=True)
          (6): Conv2d(48, 8, kernel_size=(1, 1), stride=(1, 1), bias=False)
          (7): BatchNorm2d(8, eps=1e-05, momentum=0.00029999999999996696, affine=True, track_running_stats=True)
        )
      )
      (1): _InvertedResidual(
        (layers): Sequential(
          (0): Conv2d(8, 48, kernel_size=(1, 1), stride=(1, 1), bias=False)
          (1): BatchNorm2d(48, eps=1e-05, momentum=0.00029999999999996696, affine=True, track_running_stats=True)
          (2): ReLU(inplace=True)
          (3): Conv2d(48, 48, kernel_size=(5, 5), stride=(1, 1), padding=(2, 2), groups=48, bias=False)
          (4): BatchNorm2d(48, eps=1e-05, momentum=0.00029999999999996696, affine=True, track_running_stats=True)
          (5): ReLU(inplace=True)
          (6): Conv2d(48, 8, kernel_size=(1, 1), stride=(1, 1), bias=False)
          (7): BatchNorm2d(8, eps=1e-05, momentum=0.00029999999999996696, affine=True, track_running_stats=True)
        )
      )
      (2): _InvertedResidual(
        (layers): Sequential(
          (0): Conv2d(8, 48, kernel_size=(1, 1), stride=(1, 1), bias=False)
          (1): BatchNorm2d(48, eps=1e-05, momentum=0.00029999999999996696, affine=True, track_running_stats=True)
          (2): ReLU(inplace=True)
          (3): Conv2d(48, 48, kernel_size=(5, 5), stride=(1, 1), padding=(2, 2), groups=48, bias=False)
          (4): BatchNorm2d(48, eps=1e-05, momentum=0.00029999999999996696, affine=True, track_running_stats=True)
          (5): ReLU(inplace=True)
          (6): Conv2d(48, 8, kernel_size=(1, 1), stride=(1, 1), bias=False)
          (7): BatchNorm2d(8, eps=1e-05, momentum=0.00029999999999996696, affine=True, track_running_stats=True)
        )
      )
    )
    (11): Sequential(
      (0): _InvertedResidual(
        (layers): Sequential(
          (0): Conv2d(8, 48, kernel_size=(1, 1), stride=(1, 1), bias=False)
          (1): BatchNorm2d(48, eps=1e-05, momentum=0.00029999999999996696, affine=True, track_running_stats=True)
          (2): ReLU(inplace=True)
          (3): Conv2d(48, 48, kernel_size=(3, 3), stride=(1, 1), padding=(1, 1), groups=48, bias=False)
          (4): BatchNorm2d(48, eps=1e-05, momentum=0.00029999999999996696, affine=True, track_running_stats=True)
          (5): ReLU(inplace=True)
          (6): Conv2d(48, 8, kernel_size=(1, 1), stride=(1, 1), bias=False)
          (7): BatchNorm2d(8, eps=1e-05, momentum=0.00029999999999996696, affine=True, track_running_stats=True)
        )
      )
      (1): _InvertedResidual(
        (layers): Sequential(
          (0): Conv2d(8, 48, kernel_size=(1, 1), stride=(1, 1), bias=False)
          (1): BatchNorm2d(48, eps=1e-05, momentum=0.00029999999999996696, affine=True, track_running_stats=True)
          (2): ReLU(inplace=True)
          (3): Conv2d(48, 48, kernel_size=(3, 3), stride=(1, 1), padding=(1, 1), groups=48, bias=False)
          (4): BatchNorm2d(48, eps=1e-05, momentum=0.00029999999999996696, affine=True, track_running_stats=True)
          (5): ReLU(inplace=True)
          (6): Conv2d(48, 8, kernel_size=(1, 1), stride=(1, 1), bias=False)
          (7): BatchNorm2d(8, eps=1e-05, momentum=0.00029999999999996696, affine=True, track_running_stats=True)
        )
      )
    )
    (12): Sequential(
      (0): _InvertedResidual(
        (layers): Sequential(
          (0): Conv2d(8, 48, kernel_size=(1, 1), stride=(1, 1), bias=False)
          (1): BatchNorm2d(48, eps=1e-05, momentum=0.00029999999999996696, affine=True, track_running_stats=True)
          (2): ReLU(inplace=True)
          (3): Conv2d(48, 48, kernel_size=(5, 5), stride=(2, 2), padding=(2, 2), groups=48, bias=False)
          (4): BatchNorm2d(48, eps=1e-05, momentum=0.00029999999999996696, affine=True, track_running_stats=True)
          (5): ReLU(inplace=True)
          (6): Conv2d(48, 8, kernel_size=(1, 1), stride=(1, 1), bias=False)
          (7): BatchNorm2d(8, eps=1e-05, momentum=0.00029999999999996696, affine=True, track_running_stats=True)
        )
      )
      (1): _InvertedResidual(
        (layers): Sequential(
          (0): Conv2d(8, 48, kernel_size=(1, 1), stride=(1, 1), bias=False)
          (1): BatchNorm2d(48, eps=1e-05, momentum=0.00029999999999996696, affine=True, track_running_stats=True)
          (2): ReLU(inplace=True)
          (3): Conv2d(48, 48, kernel_size=(5, 5), stride=(1, 1), padding=(2, 2), groups=48, bias=False)
          (4): BatchNorm2d(48, eps=1e-05, momentum=0.00029999999999996696, affine=True, track_running_stats=True)
          (5): ReLU(inplace=True)
          (6): Conv2d(48, 8, kernel_size=(1, 1), stride=(1, 1), bias=False)
          (7): BatchNorm2d(8, eps=1e-05, momentum=0.00029999999999996696, affine=True, track_running_stats=True)
        )
      )
      (2): _InvertedResidual(
        (layers): Sequential(
          (0): Conv2d(8, 48, kernel_size=(1, 1), stride=(1, 1), bias=False)
          (1): BatchNorm2d(48, eps=1e-05, momentum=0.00029999999999996696, affine=True, track_running_stats=True)
          (2): ReLU(inplace=True)
          (3): Conv2d(48, 48, kernel_size=(5, 5), stride=(1, 1), padding=(2, 2), groups=48, bias=False)
          (4): BatchNorm2d(48, eps=1e-05, momentum=0.00029999999999996696, affine=True, track_running_stats=True)
          (5): ReLU(inplace=True)
          (6): Conv2d(48, 8, kernel_size=(1, 1), stride=(1, 1), bias=False)
          (7): BatchNorm2d(8, eps=1e-05, momentum=0.00029999999999996696, affine=True, track_running_stats=True)
        )
      )
      (3): _InvertedResidual(
        (layers): Sequential(
          (0): Conv2d(8, 48, kernel_size=(1, 1), stride=(1, 1), bias=False)
          (1): BatchNorm2d(48, eps=1e-05, momentum=0.00029999999999996696, affine=True, track_running_stats=True)
          (2): ReLU(inplace=True)
          (3): Conv2d(48, 48, kernel_size=(5, 5), stride=(1, 1), padding=(2, 2), groups=48, bias=False)
          (4): BatchNorm2d(48, eps=1e-05, momentum=0.00029999999999996696, affine=True, track_running_stats=True)
          (5): ReLU(inplace=True)
          (6): Conv2d(48, 8, kernel_size=(1, 1), stride=(1, 1), bias=False)
          (7): BatchNorm2d(8, eps=1e-05, momentum=0.00029999999999996696, affine=True, track_running_stats=True)
        )
      )
    )
    (13): Sequential(
      (0): _InvertedResidual(
        (layers): Sequential(
          (0): Conv2d(8, 48, kernel_size=(1, 1), stride=(1, 1), bias=False)
          (1): BatchNorm2d(48, eps=1e-05, momentum=0.00029999999999996696, affine=True, track_running_stats=True)
          (2): ReLU(inplace=True)
          (3): Conv2d(48, 48, kernel_size=(3, 3), stride=(1, 1), padding=(1, 1), groups=48, bias=False)
          (4): BatchNorm2d(48, eps=1e-05, momentum=0.00029999999999996696, affine=True, track_running_stats=True)
          (5): ReLU(inplace=True)
          (6): Conv2d(48, 8, kernel_size=(1, 1), stride=(1, 1), bias=False)
          (7): BatchNorm2d(8, eps=1e-05, momentum=0.00029999999999996696, affine=True, track_running_stats=True)
        )
      )
    )
    (14): Conv2d(8, 1280, kernel_size=(1, 1), stride=(1, 1), bias=False)
    (15): BatchNorm2d(1280, eps=1e-05, momentum=0.00029999999999996696, affine=True, track_running_stats=True)
    (16): ReLU(inplace=True)
  )
  (classifier): Sequential(
    (0): Dropout(p=0.2, inplace=True)
    (1): Linear(in_features=1280, out_features=7, bias=True)
  )
)

batch_size = 100
epochs = 64
loss_function = CrossEntropyLoss()
optimizer = Adam (
Parameter Group 0
    amsgrad: False
    betas: (0.9, 0.999)
    eps: 1e-08
    lr: 0.001
    weight_decay: 0
)
