…
Loss: 0.241	Accuracy: 43.62%	Cost 29s

========== Train Epoch 59 ==========
Loss: 0.116	Accuracy: 55.32%	Cost 30s

========== Train Epoch 60 ==========
Loss: 0.061	Accuracy: 50.00%	Cost 31s

========== Train Epoch 61 ==========
Loss: 0.105	Accuracy: 51.06%	Cost 29s

========== Train Epoch 62 ==========
Loss: 0.040	Accuracy: 59.57%	Cost 30s

========== Train Epoch 63 ==========
Loss: 0.017	Accuracy: 59.04%	Cost 30s

========== Train Epoch 64 ==========
Loss: 0.013	Accuracy: 59.04%	Cost 30s

Finished training!!!

Min Loss = 0.005 in epoch 53;
    Max Accuracy = 65.43% in epoch 20;
    Total Cost 42 minutes

ResNet(
  (conv1): Conv2d(3, 64, kernel_size=(7, 7), stride=(2, 2), padding=(3, 3), bias=False)
  (bn1): BatchNorm2d(64, eps=1e-05, momentum=0.1, affine=True, track_running_stats=True)
  (relu): ReLU(inplace=True)
  (maxpool): MaxPool2d(kernel_size=3, stride=2, padding=1, dilation=1, ceil_mode=False)
  (layer1): Sequential(
    (0): BasicBlock(
      (conv1): Conv2d(64, 64, kernel_size=(3, 3), stride=(1, 1), padding=(1, 1), bias=False)
      (bn1): BatchNorm2d(64, eps=1e-05, momentum=0.1, affine=True, track_running_stats=True)
      (relu): ReLU(inplace=True)
      (conv2): Conv2d(64, 64, kernel_size=(3, 3), stride=(1, 1), padding=(1, 1), bias=False)
      (bn2): BatchNorm2d(64, eps=1e-05, momentum=0.1, affine=True, track_running_stats=True)
      (ca): CoordAtt(
        (pool_h): AdaptiveAvgPool2d(output_size=(None, 1))
        (pool_w): AdaptiveAvgPool2d(output_size=(1, None))
        (conv1): Conv2d(64, 8, kernel_size=(1, 1), stride=(1, 1))
        (bn1): BatchNorm2d(8, eps=1e-05, momentum=0.1, affine=True, track_running_stats=True)
        (act): h_swish(
          (sigmoid): h_sigmoid(
            (relu): ReLU6(inplace=True)
          )
        )
        (conv_h): Conv2d(8, 64, kernel_size=(1, 1), stride=(1, 1))
        (conv_w): Conv2d(8, 64, kernel_size=(1, 1), stride=(1, 1))
      )
    )
    (1): BasicBlock(
      (conv1): Conv2d(64, 64, kernel_size=(3, 3), stride=(1, 1), padding=(1, 1), bias=False)
      (bn1): BatchNorm2d(64, eps=1e-05, momentum=0.1, affine=True, track_running_stats=True)
      (relu): ReLU(inplace=True)
      (conv2): Conv2d(64, 64, kernel_size=(3, 3), stride=(1, 1), padding=(1, 1), bias=False)
      (bn2): BatchNorm2d(64, eps=1e-05, momentum=0.1, affine=True, track_running_stats=True)
      (ca): CoordAtt(
        (pool_h): AdaptiveAvgPool2d(output_size=(None, 1))
        (pool_w): AdaptiveAvgPool2d(output_size=(1, None))
        (conv1): Conv2d(64, 8, kernel_size=(1, 1), stride=(1, 1))
        (bn1): BatchNorm2d(8, eps=1e-05, momentum=0.1, affine=True, track_running_stats=True)
        (act): h_swish(
          (sigmoid): h_sigmoid(
            (relu): ReLU6(inplace=True)
          )
        )
        (conv_h): Conv2d(8, 64, kernel_size=(1, 1), stride=(1, 1))
        (conv_w): Conv2d(8, 64, kernel_size=(1, 1), stride=(1, 1))
      )
    )
  )
  (layer2): Sequential(
    (0): BasicBlock(
      (conv1): Conv2d(64, 128, kernel_size=(3, 3), stride=(2, 2), padding=(1, 1), bias=False)
      (bn1): BatchNorm2d(128, eps=1e-05, momentum=0.1, affine=True, track_running_stats=True)
      (relu): ReLU(inplace=True)
      (conv2): Conv2d(128, 128, kernel_size=(3, 3), stride=(1, 1), padding=(1, 1), bias=False)
      (bn2): BatchNorm2d(128, eps=1e-05, momentum=0.1, affine=True, track_running_stats=True)
      (downsample): Sequential(
        (0): Conv2d(64, 128, kernel_size=(1, 1), stride=(2, 2), bias=False)
        (1): BatchNorm2d(128, eps=1e-05, momentum=0.1, affine=True, track_running_stats=True)
      )
      (ca): CoordAtt(
        (pool_h): AdaptiveAvgPool2d(output_size=(None, 1))
        (pool_w): AdaptiveAvgPool2d(output_size=(1, None))
        (conv1): Conv2d(128, 8, kernel_size=(1, 1), stride=(1, 1))
        (bn1): BatchNorm2d(8, eps=1e-05, momentum=0.1, affine=True, track_running_stats=True)
        (act): h_swish(
          (sigmoid): h_sigmoid(
            (relu): ReLU6(inplace=True)
          )
        )
        (conv_h): Conv2d(8, 128, kernel_size=(1, 1), stride=(1, 1))
        (conv_w): Conv2d(8, 128, kernel_size=(1, 1), stride=(1, 1))
      )
    )
    (1): BasicBlock(
      (conv1): Conv2d(128, 128, kernel_size=(3, 3), stride=(1, 1), padding=(1, 1), bias=False)
      (bn1): BatchNorm2d(128, eps=1e-05, momentum=0.1, affine=True, track_running_stats=True)
      (relu): ReLU(inplace=True)
      (conv2): Conv2d(128, 128, kernel_size=(3, 3), stride=(1, 1), padding=(1, 1), bias=False)
      (bn2): BatchNorm2d(128, eps=1e-05, momentum=0.1, affine=True, track_running_stats=True)
      (ca): CoordAtt(
        (pool_h): AdaptiveAvgPool2d(output_size=(None, 1))
        (pool_w): AdaptiveAvgPool2d(output_size=(1, None))
        (conv1): Conv2d(128, 8, kernel_size=(1, 1), stride=(1, 1))
        (bn1): BatchNorm2d(8, eps=1e-05, momentum=0.1, affine=True, track_running_stats=True)
        (act): h_swish(
          (sigmoid): h_sigmoid(
            (relu): ReLU6(inplace=True)
          )
        )
        (conv_h): Conv2d(8, 128, kernel_size=(1, 1), stride=(1, 1))
        (conv_w): Conv2d(8, 128, kernel_size=(1, 1), stride=(1, 1))
      )
    )
  )
  (layer3): Sequential(
    (0): BasicBlock(
      (conv1): Conv2d(128, 256, kernel_size=(3, 3), stride=(2, 2), padding=(1, 1), bias=False)
      (bn1): BatchNorm2d(256, eps=1e-05, momentum=0.1, affine=True, track_running_stats=True)
      (relu): ReLU(inplace=True)
      (conv2): Conv2d(256, 256, kernel_size=(3, 3), stride=(1, 1), padding=(1, 1), bias=False)
      (bn2): BatchNorm2d(256, eps=1e-05, momentum=0.1, affine=True, track_running_stats=True)
      (downsample): Sequential(
        (0): Conv2d(128, 256, kernel_size=(1, 1), stride=(2, 2), bias=False)
        (1): BatchNorm2d(256, eps=1e-05, momentum=0.1, affine=True, track_running_stats=True)
      )
      (ca): CoordAtt(
        (pool_h): AdaptiveAvgPool2d(output_size=(None, 1))
        (pool_w): AdaptiveAvgPool2d(output_size=(1, None))
        (conv1): Conv2d(256, 8, kernel_size=(1, 1), stride=(1, 1))
        (bn1): BatchNorm2d(8, eps=1e-05, momentum=0.1, affine=True, track_running_stats=True)
        (act): h_swish(
          (sigmoid): h_sigmoid(
            (relu): ReLU6(inplace=True)
          )
        )
        (conv_h): Conv2d(8, 256, kernel_size=(1, 1), stride=(1, 1))
        (conv_w): Conv2d(8, 256, kernel_size=(1, 1), stride=(1, 1))
      )
    )
    (1): BasicBlock(
      (conv1): Conv2d(256, 256, kernel_size=(3, 3), stride=(1, 1), padding=(1, 1), bias=False)
      (bn1): BatchNorm2d(256, eps=1e-05, momentum=0.1, affine=True, track_running_stats=True)
      (relu): ReLU(inplace=True)
      (conv2): Conv2d(256, 256, kernel_size=(3, 3), stride=(1, 1), padding=(1, 1), bias=False)
      (bn2): BatchNorm2d(256, eps=1e-05, momentum=0.1, affine=True, track_running_stats=True)
      (ca): CoordAtt(
        (pool_h): AdaptiveAvgPool2d(output_size=(None, 1))
        (pool_w): AdaptiveAvgPool2d(output_size=(1, None))
        (conv1): Conv2d(256, 8, kernel_size=(1, 1), stride=(1, 1))
        (bn1): BatchNorm2d(8, eps=1e-05, momentum=0.1, affine=True, track_running_stats=True)
        (act): h_swish(
          (sigmoid): h_sigmoid(
            (relu): ReLU6(inplace=True)
          )
        )
        (conv_h): Conv2d(8, 256, kernel_size=(1, 1), stride=(1, 1))
        (conv_w): Conv2d(8, 256, kernel_size=(1, 1), stride=(1, 1))
      )
    )
  )
  (layer4): Sequential(
    (0): BasicBlock(
      (conv1): Conv2d(256, 512, kernel_size=(3, 3), stride=(2, 2), padding=(1, 1), bias=False)
      (bn1): BatchNorm2d(512, eps=1e-05, momentum=0.1, affine=True, track_running_stats=True)
      (relu): ReLU(inplace=True)
      (conv2): Conv2d(512, 512, kernel_size=(3, 3), stride=(1, 1), padding=(1, 1), bias=False)
      (bn2): BatchNorm2d(512, eps=1e-05, momentum=0.1, affine=True, track_running_stats=True)
      (downsample): Sequential(
        (0): Conv2d(256, 512, kernel_size=(1, 1), stride=(2, 2), bias=False)
        (1): BatchNorm2d(512, eps=1e-05, momentum=0.1, affine=True, track_running_stats=True)
      )
      (ca): CoordAtt(
        (pool_h): AdaptiveAvgPool2d(output_size=(None, 1))
        (pool_w): AdaptiveAvgPool2d(output_size=(1, None))
        (conv1): Conv2d(512, 16, kernel_size=(1, 1), stride=(1, 1))
        (bn1): BatchNorm2d(16, eps=1e-05, momentum=0.1, affine=True, track_running_stats=True)
        (act): h_swish(
          (sigmoid): h_sigmoid(
            (relu): ReLU6(inplace=True)
          )
        )
        (conv_h): Conv2d(16, 512, kernel_size=(1, 1), stride=(1, 1))
        (conv_w): Conv2d(16, 512, kernel_size=(1, 1), stride=(1, 1))
      )
    )
    (1): BasicBlock(
      (conv1): Conv2d(512, 512, kernel_size=(3, 3), stride=(1, 1), padding=(1, 1), bias=False)
      (bn1): BatchNorm2d(512, eps=1e-05, momentum=0.1, affine=True, track_running_stats=True)
      (relu): ReLU(inplace=True)
      (conv2): Conv2d(512, 512, kernel_size=(3, 3), stride=(1, 1), padding=(1, 1), bias=False)
      (bn2): BatchNorm2d(512, eps=1e-05, momentum=0.1, affine=True, track_running_stats=True)
      (ca): CoordAtt(
        (pool_h): AdaptiveAvgPool2d(output_size=(None, 1))
        (pool_w): AdaptiveAvgPool2d(output_size=(1, None))
        (conv1): Conv2d(512, 16, kernel_size=(1, 1), stride=(1, 1))
        (bn1): BatchNorm2d(16, eps=1e-05, momentum=0.1, affine=True, track_running_stats=True)
        (act): h_swish(
          (sigmoid): h_sigmoid(
            (relu): ReLU6(inplace=True)
          )
        )
        (conv_h): Conv2d(16, 512, kernel_size=(1, 1), stride=(1, 1))
        (conv_w): Conv2d(16, 512, kernel_size=(1, 1), stride=(1, 1))
      )
    )
  )
  (avgpool): AdaptiveAvgPool2d(output_size=(1, 1))
  (fc_): Linear(in_features=512, out_features=7, bias=True)
  (__fc__): Linear(in_features=1024, out_features=7, bias=True)
)

[… Traceback (most recent call last):
  File "train.py", line 247, in <module>
    Plot('', 'b', acc_list)
TypeError: plot() got an unexpected keyword argument 'args'
