…
========== Train Epoch 59 ==========
Loss: 1.288	Accuracy: 40.43%	Cost 51s

========== Train Epoch 60 ==========
Loss: 1.287	Accuracy: 40.96%	Cost 50s

========== Train Epoch 61 ==========
Loss: 1.302	Accuracy: 42.55%	Cost 50s

========== Train Epoch 62 ==========
Loss: 1.261	Accuracy: 40.96%	Cost 51s

========== Train Epoch 63 ==========
Loss: 1.257	Accuracy: 42.02%	Cost 52s

========== Train Epoch 64 ==========
Loss: 1.220	Accuracy: 40.96%	Cost 50s

Finished training!!!

Min Loss = 1.220 in epoch 63;
    Max Accuracy = 42.55% in epoch 60;
    Total Cost 48 minutes

AlexNet(
  (features): Sequential(
    (0): Conv2d(3, 64, kernel_size=(11, 11), stride=(4, 4), padding=(2, 2))
    (1): ReLU(inplace=True)
    (2): MaxPool2d(kernel_size=3, stride=2, padding=0, dilation=1, ceil_mode=False)
    (3): Conv2d(64, 192, kernel_size=(5, 5), stride=(1, 1), padding=(2, 2))
    (4): ReLU(inplace=True)
    (5): MaxPool2d(kernel_size=3, stride=2, padding=0, dilation=1, ceil_mode=False)
    (6): Conv2d(192, 384, kernel_size=(3, 3), stride=(1, 1), padding=(1, 1))
    (7): ReLU(inplace=True)
    (8): Conv2d(384, 256, kernel_size=(3, 3), stride=(1, 1), padding=(1, 1))
    (9): ReLU(inplace=True)
    (10): Conv2d(256, 256, kernel_size=(3, 3), stride=(1, 1), padding=(1, 1))
    (11): ReLU(inplace=True)
    (12): MaxPool2d(kernel_size=3, stride=2, padding=0, dilation=1, ceil_mode=False)
  )
  (conv1): Conv2d(3, 64, kernel_size=(7, 7), stride=(4, 4), padding=(2, 2))
  (relu1): ReLU(inplace=True)
  (pool1): MaxPool2d(kernel_size=3, stride=2, padding=0, dilation=1, ceil_mode=False)
  (conv2): Conv2d(256, 256, kernel_size=(5, 5), stride=(1, 1), padding=(2, 2))
  (relu2): ReLU(inplace=True)
  (pool2): MaxPool2d(kernel_size=3, stride=2, padding=0, dilation=1, ceil_mode=False)
  (conv3): Conv2d(256, 384, kernel_size=(3, 3), stride=(1, 1), padding=(1, 1))
  (relu3): ReLU(inplace=True)
  (conv4): Conv2d(384, 256, kernel_size=(3, 3), stride=(1, 1), padding=(1, 1))
  (relu4): ReLU(inplace=True)
  (conv5): Conv2d(256, 256, kernel_size=(3, 3), stride=(1, 1), padding=(1, 1))
  (relu5): ReLU(inplace=True)
  (avgpool): AdaptiveAvgPool2d(output_size=(3, 3))
  (classifier_): Sequential(
    (0): Dropout(p=0.5, inplace=False)
    (1): Linear(in_features=2304, out_features=4096, bias=True)
    (2): ReLU(inplace=True)
    (3): Dropout(p=0.5, inplace=False)
    (4): Linear(in_features=4096, out_features=4096, bias=True)
    (5): ReLU(inplace=True)
    (6): Linear(in_features=4096, out_features=7, bias=True)
  )
  (__classifier__): Sequential(
    (0): Dropout(p=0.5, inplace=False)
    (1): Linear(in_features=4608, out_features=4096, bias=True)
    (2): ReLU(inplace=True)
    (3): Dropout(p=0.5, inplace=False)
    (4): Linear(in_features=4096, out_features=4096, bias=True)
    (5): ReLU(inplace=True)
    (6): Linear(in_features=4096, out_features=7, bias=True)
  )
  (spp1): SPP()
)

[… 