…
         zxx     0.8438    0.6923    0.7606        39

    accuracy                         0.6000       185
   macro avg     0.5909    0.5775    0.5677       185
weighted avg     0.6766    0.6000    0.6229       185

micro f-score: 0.6

Finished training!!!

Min Loss = 0.126 in epoch 62;
Max Accuracy = 66.49% in epoch 43;
Total Cost 32 minutes

==========================================================================================
Layer (type:depth-idx)                   Output Shape              Param #
==========================================================================================
├─Conv2d: 1-1                            [-1, 64, 160, 160]        9,408
├─BatchNorm2d: 1-2                       [-1, 64, 160, 160]        128
├─ReLU: 1-3                              [-1, 64, 160, 160]        --
├─SPP: 1-4                               [-1, 64, 160, 160]        --
|    └─Conv: 2-1                         [-1, 32, 160, 160]        --
|    |    └─Conv2d: 3-1                  [-1, 32, 160, 160]        2,048
|    |    └─BatchNorm2d: 3-2             [-1, 32, 160, 160]        64
|    |    └─ReLU: 3-3                    [-1, 32, 160, 160]        --
|    └─ModuleList: 2                     []                        --
|    |    └─MaxPool2d: 3-4               [-1, 32, 160, 160]        --
|    |    └─MaxPool2d: 3-5               [-1, 32, 160, 160]        --
|    |    └─MaxPool2d: 3-6               [-1, 32, 160, 160]        --
|    └─Conv: 2-2                         [-1, 64, 160, 160]        --
|    |    └─Conv2d: 3-7                  [-1, 64, 160, 160]        8,192
|    |    └─BatchNorm2d: 3-8             [-1, 64, 160, 160]        128
|    |    └─ReLU: 3-9                    [-1, 64, 160, 160]        --
├─Sequential: 1-5                        [-1, 64, 160, 160]        --
|    └─BasicBlock: 2-3                   [-1, 64, 160, 160]        --
|    |    └─Conv2d: 3-10                 [-1, 64, 160, 160]        36,864
|    |    └─BatchNorm2d: 3-11            [-1, 64, 160, 160]        128
|    |    └─ReLU: 3-12                   [-1, 64, 160, 160]        --
|    |    └─Conv2d: 3-13                 [-1, 64, 160, 160]        36,864
|    |    └─BatchNorm2d: 3-14            [-1, 64, 160, 160]        128
|    |    └─ReLU: 3-15                   [-1, 64, 160, 160]        --
|    └─BasicBlock: 2-4                   [-1, 64, 160, 160]        --
|    |    └─Conv2d: 3-16                 [-1, 64, 160, 160]        36,864
|    |    └─BatchNorm2d: 3-17            [-1, 64, 160, 160]        128
|    |    └─ReLU: 3-18                   [-1, 64, 160, 160]        --
|    |    └─Conv2d: 3-19                 [-1, 64, 160, 160]        36,864
|    |    └─BatchNorm2d: 3-20            [-1, 64, 160, 160]        128
|    |    └─ReLU: 3-21                   [-1, 64, 160, 160]        --
├─Sequential: 1-6                        [-1, 128, 80, 80]         --
|    └─BasicBlock: 2-5                   [-1, 128, 80, 80]         --
|    |    └─Conv2d: 3-22                 [-1, 128, 80, 80]         73,728
|    |    └─BatchNorm2d: 3-23            [-1, 128, 80, 80]         256
|    |    └─ReLU: 3-24                   [-1, 128, 80, 80]         --
|    |    └─Conv2d: 3-25                 [-1, 128, 80, 80]         147,456
|    |    └─BatchNorm2d: 3-26            [-1, 128, 80, 80]         256
|    |    └─Sequential: 3-27             [-1, 128, 80, 80]         8,448
|    |    └─ReLU: 3-28                   [-1, 128, 80, 80]         --
|    └─BasicBlock: 2-6                   [-1, 128, 80, 80]         --
|    |    └─Conv2d: 3-29                 [-1, 128, 80, 80]         147,456
|    |    └─BatchNorm2d: 3-30            [-1, 128, 80, 80]         256
|    |    └─ReLU: 3-31                   [-1, 128, 80, 80]         --
|    |    └─Conv2d: 3-32                 [-1, 128, 80, 80]         147,456
|    |    └─BatchNorm2d: 3-33            [-1, 128, 80, 80]         256
|    |    └─ReLU: 3-34                   [-1, 128, 80, 80]         --
├─Sequential: 1-7                        [-1, 256, 40, 40]         --
|    └─BasicBlock: 2-7                   [-1, 256, 40, 40]         --
|    |    └─Conv2d: 3-35                 [-1, 256, 40, 40]         294,912
|    |    └─BatchNorm2d: 3-36            [-1, 256, 40, 40]         512
|    |    └─ReLU: 3-37                   [-1, 256, 40, 40]         --
|    |    └─Conv2d: 3-38                 [-1, 256, 40, 40]         589,824
|    |    └─BatchNorm2d: 3-39            [-1, 256, 40, 40]         512
|    |    └─Sequential: 3-40             [-1, 256, 40, 40]         33,280
|    |    └─ReLU: 3-41                   [-1, 256, 40, 40]         --
|    └─BasicBlock: 2-8                   [-1, 256, 40, 40]         --
|    |    └─Conv2d: 3-42                 [-1, 256, 40, 40]         589,824
|    |    └─BatchNorm2d: 3-43            [-1, 256, 40, 40]         512
|    |    └─ReLU: 3-44                   [-1, 256, 40, 40]         --
|    |    └─Conv2d: 3-45                 [-1, 256, 40, 40]         589,824
|    |    └─BatchNorm2d: 3-46            [-1, 256, 40, 40]         512
|    |    └─ReLU: 3-47                   [-1, 256, 40, 40]         --
├─Sequential: 1-8                        [-1, 512, 20, 20]         --
|    └─BasicBlock: 2-9                   [-1, 512, 20, 20]         --
|    |    └─Conv2d: 3-48                 [-1, 512, 20, 20]         1,179,648
|    |    └─BatchNorm2d: 3-49            [-1, 512, 20, 20]         1,024
|    |    └─ReLU: 3-50                   [-1, 512, 20, 20]         --
|    |    └─Conv2d: 3-51                 [-1, 512, 20, 20]         2,359,296
|    |    └─BatchNorm2d: 3-52            [-1, 512, 20, 20]         1,024
|    |    └─Sequential: 3-53             [-1, 512, 20, 20]         132,096
|    |    └─ReLU: 3-54                   [-1, 512, 20, 20]         --
|    └─BasicBlock: 2-10                  [-1, 512, 20, 20]         --
|    |    └─Conv2d: 3-55                 [-1, 512, 20, 20]         2,359,296
|    |    └─BatchNorm2d: 3-56            [-1, 512, 20, 20]         1,024
|    |    └─ReLU: 3-57                   [-1, 512, 20, 20]         --
|    |    └─Conv2d: 3-58                 [-1, 512, 20, 20]         2,359,296
|    |    └─BatchNorm2d: 3-59            [-1, 512, 20, 20]         1,024
|    |    └─ReLU: 3-60                   [-1, 512, 20, 20]         --
├─AdaptiveAvgPool2d: 1-9                 [-1, 512, 1, 1]           --
├─Linear: 1-10                           [-1, 7]                   3,591
==========================================================================================
Total params: 11,190,535
Trainable params: 11,190,535
Non-trainable params: 0
Total mult-adds (G): 14.37
==========================================================================================
Input size (MB): 1.17
Forward/backward pass size (MB): 271.88
Params size (MB): 42.69
Estimated Total Size (MB): 315.74
…
